{"class_name": "Functional", "config": {"name": "model_3", "layers": [{"class_name": "InputLayer", "config": {"batch_input_shape": [null, 25, 224, 224, 3], "dtype": "float32", "sparse": false, "ragged": false, "name": "input_3"}, "name": "input_3", "inbound_nodes": []}, {"class_name": "Lambda", "config": {"name": "data_fast", "trainable": true, "dtype": "float32", "function": ["4wIAAAAAAAAAAgAAAAcAAABDAAAAcygAAAB8AGQAZACFAmQAZAB8AYUDZABkAIUCZABkAIUCZABk\nAIUCZgUZAFMAKQFOqQApAtoBeNoGc3RyaWRlcgEAAAByAQAAAHoePGlweXRob24taW5wdXQtOS0z\nMzJjYmJlNzY5ODc+2glkYXRhbGF5ZXIcAAAAcwIAAAAAAQ==\n", null, null], "function_type": "lambda", "module": "keras.layers.core", "output_shape": null, "output_shape_type": "raw", "output_shape_module": null, "arguments": {"stride": 2}}, "name": "data_fast", "inbound_nodes": [[["input_3", 0, 0, {}]]]}, {"class_name": "Lambda", "config": {"name": "data_slow", "trainable": true, "dtype": "float32", "function": ["4wIAAAAAAAAAAgAAAAcAAABDAAAAcygAAAB8AGQAZACFAmQAZAB8AYUDZABkAIUCZABkAIUCZABk\nAIUCZgUZAFMAKQFOqQApAtoBeNoGc3RyaWRlcgEAAAByAQAAAHoePGlweXRob24taW5wdXQtOS0z\nMzJjYmJlNzY5ODc+2glkYXRhbGF5ZXIcAAAAcwIAAAAAAQ==\n", null, null], "function_type": "lambda", "module": "keras.layers.core", "output_shape": null, "output_shape_type": "raw", "output_shape_module": null, "arguments": {"stride": 16}}, "name": "data_slow", "inbound_nodes": [[["input_3", 0, 0, {}]]]}, {"class_name": "Sequential", "config": {"name": "sequential_149", "layers": [{"class_name": "InputLayer", "config": {"batch_input_shape": [null, 13, 224, 224, 3], "dtype": "float32", "sparse": false, "ragged": false, "name": "conv3d_221_input"}}, {"class_name": "Conv3D", "config": {"name": "conv3d_221", "trainable": true, "dtype": "float32", "filters": 8, "kernel_size": [5, 7, 7], "strides": [1, 2, 2], "padding": "same", "data_format": "channels_last", "dilation_rate": [1, 1, 1], "groups": 1, "activation": "linear", "use_bias": false, "kernel_initializer": {"class_name": "VarianceScaling", "config": {"scale": 1.0, "mode": "fan_avg", "distribution": "uniform", "seed": null}}, "bias_initializer": {"class_name": "Zeros", "config": {}}, "kernel_regularizer": null, "bias_regularizer": null, "activity_regularizer": null, "kernel_constraint": null, "bias_constraint": null}}, {"class_name": "BatchNormalization", "config": {"name": "batch_normalization_213", "trainable": true, "dtype": "float32", "axis": [4], "momentum": 0.99, "epsilon": 0.001, "center": true, "scale": true, "beta_initializer": {"class_name": "Zeros", "config": {}}, "gamma_initializer": {"class_name": "Ones", "config": {}}, "moving_mean_initializer": {"class_name": "Zeros", "config": {}}, "moving_variance_initializer": {"class_name": "Ones", "config": {}}, "beta_regularizer": null, "gamma_regularizer": null, "beta_constraint": null, "gamma_constraint": null}}, {"class_name": "ReLU", "config": {"name": "re_lu_197", "trainable": true, "dtype": "float32", "max_value": null, "negative_slope": 0.0, "threshold": 0.0}}]}, "name": "sequential_149", "inbound_nodes": [[["data_fast", 0, 0, {}]]]}, {"class_name": "Sequential", "config": {"name": "sequential_186", "layers": [{"class_name": "InputLayer", "config": {"batch_input_shape": [null, 2, 224, 224, 3], "dtype": "float32", "sparse": false, "ragged": false, "name": "conv3d_278_input"}}, {"class_name": "Conv3D", "config": {"name": "conv3d_278", "trainable": true, "dtype": "float32", "filters": 64, "kernel_size": [1, 7, 7], "strides": [1, 2, 2], "padding": "same", "data_format": "channels_last", "dilation_rate": [1, 1, 1], "groups": 1, "activation": "linear", "use_bias": false, "kernel_initializer": {"class_name": "VarianceScaling", "config": {"scale": 1.0, "mode": "fan_avg", "distribution": "uniform", "seed": null}}, "bias_initializer": {"class_name": "Zeros", "config": {}}, "kernel_regularizer": null, "bias_regularizer": null, "activity_regularizer": null, "kernel_constraint": null, "bias_constraint": null}}, {"class_name": "BatchNormalization", "config": {"name": "batch_normalization_266", "trainable": true, "dtype": "float32", "axis": [4], "momentum": 0.99, "epsilon": 0.001, "center": true, "scale": true, "beta_initializer": {"class_name": "Zeros", "config": {}}, "gamma_initializer": {"class_name": "Ones", "config": {}}, "moving_mean_initializer": {"class_name": "Zeros", "config": {}}, "moving_variance_initializer": {"class_name": "Ones", "config": {}}, "beta_regularizer": null, "gamma_regularizer": null, "beta_constraint": null, "gamma_constraint": null}}, {"class_name": "ReLU", "config": {"name": "re_lu_246", "trainable": true, "dtype": "float32", "max_value": null, "negative_slope": 0.0, "threshold": 0.0}}]}, "name": "sequential_186", "inbound_nodes": [[["data_slow", 0, 0, {}]]]}, {"class_name": "MaxPooling3D", "config": {"name": "max_pooling3d_5", "trainable": true, "dtype": "float32", "pool_size": [1, 3, 3], "padding": "same", "strides": [1, 2, 2], "data_format": "channels_last"}, "name": "max_pooling3d_5", "inbound_nodes": [[["sequential_149", 1, 0, {}]]]}, {"class_name": "MaxPooling3D", "config": {"name": "max_pooling3d_6", "trainable": true, "dtype": "float32", "pool_size": [1, 3, 3], "padding": "same", "strides": [1, 2, 2], "data_format": "channels_last"}, "name": "max_pooling3d_6", "inbound_nodes": [[["sequential_186", 1, 0, {}]]]}, {"class_name": "Conv3D", "config": {"name": "conv3d_222", "trainable": true, "dtype": "float32", "filters": 16, "kernel_size": [5, 1, 1], "strides": [8, 1, 1], "padding": "same", "data_format": "channels_last", "dilation_rate": [1, 1, 1], "groups": 1, "activation": "linear", "use_bias": false, "kernel_initializer": {"class_name": "VarianceScaling", "config": {"scale": 1.0, "mode": "fan_avg", "distribution": "uniform", "seed": null}}, "bias_initializer": {"class_name": "Zeros", "config": {}}, "kernel_regularizer": null, "bias_regularizer": null, "activity_regularizer": null, "kernel_constraint": null, "bias_constraint": null}, "name": "conv3d_222", "inbound_nodes": [[["max_pooling3d_5", 0, 0, {}]]]}, {"class_name": "Concatenate", "config": {"name": "concatenate_11", "trainable": true, "dtype": "float32", "axis": -1}, "name": "concatenate_11", "inbound_nodes": [[["max_pooling3d_6", 0, 0, {}], ["conv3d_222", 0, 0, {}]]]}, {"class_name": "Sequential", "config": {"name": "sequential_151", "layers": [{"class_name": "InputLayer", "config": {"batch_input_shape": [null, 13, 56, 56, 8], "dtype": "float32", "sparse": false, "ragged": false, "name": "conv3d_224_input"}}, {"class_name": "Conv3D", "config": {"name": "conv3d_224", "trainable": true, "dtype": "float32", "filters": 8, "kernel_size": [3, 1, 1], "strides": [1, 1, 1], "padding": "same", "data_format": "channels_last", "dilation_rate": [1, 1, 1], "groups": 1, "activation": "linear", "use_bias": false, "kernel_initializer": {"class_name": "VarianceScaling", "config": {"scale": 1.0, "mode": "fan_avg", "distribution": "uniform", "seed": null}}, "bias_initializer": {"class_name": "Zeros", "config": {}}, "kernel_regularizer": null, "bias_regularizer": null, "activity_regularizer": null, "kernel_constraint": null, "bias_constraint": null}}, {"class_name": "BatchNormalization", "config": {"name": "batch_normalization_215", "trainable": true, "dtype": "float32", "axis": [4], "momentum": 0.99, "epsilon": 0.001, "center": true, "scale": true, "beta_initializer": {"class_name": "Zeros", "config": {}}, "gamma_initializer": {"class_name": "Ones", "config": {}}, "moving_mean_initializer": {"class_name": "Zeros", "config": {}}, "moving_variance_initializer": {"class_name": "Ones", "config": {}}, "beta_regularizer": null, "gamma_regularizer": null, "beta_constraint": null, "gamma_constraint": null}}, {"class_name": "ReLU", "config": {"name": "re_lu_198", "trainable": true, "dtype": "float32", "max_value": null, "negative_slope": 0.0, "threshold": 0.0}}]}, "name": "sequential_151", "inbound_nodes": [[["max_pooling3d_5", 0, 0, {}]]]}, {"class_name": "Sequential", "config": {"name": "sequential_188", "layers": [{"class_name": "InputLayer", "config": {"batch_input_shape": [null, 2, 56, 56, 80], "dtype": "float32", "sparse": false, "ragged": false, "name": "conv3d_280_input"}}, {"class_name": "Conv3D", "config": {"name": "conv3d_280", "trainable": true, "dtype": "float32", "filters": 64, "kernel_size": [1, 1, 1], "strides": [1, 1, 1], "padding": "same", "data_format": "channels_last", "dilation_rate": [1, 1, 1], "groups": 1, "activation": "linear", "use_bias": false, "kernel_initializer": {"class_name": "VarianceScaling", "config": {"scale": 1.0, "mode": "fan_avg", "distribution": "uniform", "seed": null}}, "bias_initializer": {"class_name": "Zeros", "config": {}}, "kernel_regularizer": null, "bias_regularizer": null, "activity_regularizer": null, "kernel_constraint": null, "bias_constraint": null}}, {"class_name": "BatchNormalization", "config": {"name": "batch_normalization_268", "trainable": true, "dtype": "float32", "axis": [4], "momentum": 0.99, "epsilon": 0.001, "center": true, "scale": true, "beta_initializer": {"class_name": "Zeros", "config": {}}, "gamma_initializer": {"class_name": "Ones", "config": {}}, "moving_mean_initializer": {"class_name": "Zeros", "config": {}}, "moving_variance_initializer": {"class_name": "Ones", "config": {}}, "beta_regularizer": null, "gamma_regularizer": null, "beta_constraint": null, "gamma_constraint": null}}, {"class_name": "ReLU", "config": {"name": "re_lu_247", "trainable": true, "dtype": "float32", "max_value": null, "negative_slope": 0.0, "threshold": 0.0}}]}, "name": "sequential_188", "inbound_nodes": [[["concatenate_11", 0, 0, {}]]]}, {"class_name": "Sequential", "config": {"name": "sequential_152", "layers": [{"class_name": "InputLayer", "config": {"batch_input_shape": [null, 13, 56, 56, 8], "dtype": "float32", "sparse": false, "ragged": false, "name": "conv3d_225_input"}}, {"class_name": "Conv3D", "config": {"name": "conv3d_225", "trainable": true, "dtype": "float32", "filters": 8, "kernel_size": [1, 3, 3], "strides": [1, 1, 1], "padding": "same", "data_format": "channels_last", "dilation_rate": [1, 1, 1], "groups": 1, "activation": "linear", "use_bias": false, "kernel_initializer": {"class_name": "VarianceScaling", "config": {"scale": 1.0, "mode": "fan_avg", "distribution": "uniform", "seed": null}}, "bias_initializer": {"class_name": "Zeros", "config": {}}, "kernel_regularizer": null, "bias_regularizer": null, "activity_regularizer": null, "kernel_constraint": null, "bias_constraint": null}}, {"class_name": "BatchNormalization", "config": {"name": "batch_normalization_216", "trainable": true, "dtype": "float32", "axis": [4], "momentum": 0.99, "epsilon": 0.001, "center": true, "scale": true, "beta_initializer": {"class_name": "Zeros", "config": {}}, "gamma_initializer": {"class_name": "Ones", "config": {}}, "moving_mean_initializer": {"class_name": "Zeros", "config": {}}, "moving_variance_initializer": {"class_name": "Ones", "config": {}}, "beta_regularizer": null, "gamma_regularizer": null, "beta_constraint": null, "gamma_constraint": null}}, {"class_name": "ReLU", "config": {"name": "re_lu_199", "trainable": true, "dtype": "float32", "max_value": null, "negative_slope": 0.0, "threshold": 0.0}}]}, "name": "sequential_152", "inbound_nodes": [[["sequential_151", 1, 0, {}]]]}, {"class_name": "Sequential", "config": {"name": "sequential_189", "layers": [{"class_name": "InputLayer", "config": {"batch_input_shape": [null, 2, 56, 56, 64], "dtype": "float32", "sparse": false, "ragged": false, "name": "conv3d_281_input"}}, {"class_name": "Conv3D", "config": {"name": "conv3d_281", "trainable": true, "dtype": "float32", "filters": 64, "kernel_size": [1, 3, 3], "strides": [1, 1, 1], "padding": "same", "data_format": "channels_last", "dilation_rate": [1, 1, 1], "groups": 1, "activation": "linear", "use_bias": false, "kernel_initializer": {"class_name": "VarianceScaling", "config": {"scale": 1.0, "mode": "fan_avg", "distribution": "uniform", "seed": null}}, "bias_initializer": {"class_name": "Zeros", "config": {}}, "kernel_regularizer": null, "bias_regularizer": null, "activity_regularizer": null, "kernel_constraint": null, "bias_constraint": null}}, {"class_name": "BatchNormalization", "config": {"name": "batch_normalization_269", "trainable": true, "dtype": "float32", "axis": [4], "momentum": 0.99, "epsilon": 0.001, "center": true, "scale": true, "beta_initializer": {"class_name": "Zeros", "config": {}}, "gamma_initializer": {"class_name": "Ones", "config": {}}, "moving_mean_initializer": {"class_name": "Zeros", "config": {}}, "moving_variance_initializer": {"class_name": "Ones", "config": {}}, "beta_regularizer": null, "gamma_regularizer": null, "beta_constraint": null, "gamma_constraint": null}}, {"class_name": "ReLU", "config": {"name": "re_lu_248", "trainable": true, "dtype": "float32", "max_value": null, "negative_slope": 0.0, "threshold": 0.0}}]}, "name": "sequential_189", "inbound_nodes": [[["sequential_188", 1, 0, {}]]]}, {"class_name": "Conv3D", "config": {"name": "conv3d_226", "trainable": true, "dtype": "float32", "filters": 32, "kernel_size": [1, 1, 1], "strides": [1, 1, 1], "padding": "valid", "data_format": "channels_last", "dilation_rate": [1, 1, 1], "groups": 1, "activation": "linear", "use_bias": false, "kernel_initializer": {"class_name": "VarianceScaling", "config": {"scale": 1.0, "mode": "fan_avg", "distribution": "uniform", "seed": null}}, "bias_initializer": {"class_name": "Zeros", "config": {}}, "kernel_regularizer": null, "bias_regularizer": null, "activity_regularizer": null, "kernel_constraint": null, "bias_constraint": null}, "name": "conv3d_226", "inbound_nodes": [[["sequential_152", 1, 0, {}]]]}, {"class_name": "Conv3D", "config": {"name": "conv3d_282", "trainable": true, "dtype": "float32", "filters": 256, "kernel_size": [1, 1, 1], "strides": [1, 1, 1], "padding": "valid", "data_format": "channels_last", "dilation_rate": [1, 1, 1], "groups": 1, "activation": "linear", "use_bias": false, "kernel_initializer": {"class_name": "VarianceScaling", "config": {"scale": 1.0, "mode": "fan_avg", "distribution": "uniform", "seed": null}}, "bias_initializer": {"class_name": "Zeros", "config": {}}, "kernel_regularizer": null, "bias_regularizer": null, "activity_regularizer": null, "kernel_constraint": null, "bias_constraint": null}, "name": "conv3d_282", "inbound_nodes": [[["sequential_189", 1, 0, {}]]]}, {"class_name": "BatchNormalization", "config": {"name": "batch_normalization_217", "trainable": true, "dtype": "float32", "axis": [4], "momentum": 0.99, "epsilon": 0.001, "center": true, "scale": true, "beta_initializer": {"class_name": "Zeros", "config": {}}, "gamma_initializer": {"class_name": "Ones", "config": {}}, "moving_mean_initializer": {"class_name": "Zeros", "config": {}}, "moving_variance_initializer": {"class_name": "Ones", "config": {}}, "beta_regularizer": null, "gamma_regularizer": null, "beta_constraint": null, "gamma_constraint": null}, "name": "batch_normalization_217", "inbound_nodes": [[["conv3d_226", 0, 0, {}]]]}, {"class_name": "Sequential", "config": {"name": "sequential_150", "layers": [{"class_name": "InputLayer", "config": {"batch_input_shape": [null, 13, 56, 56, 8], "dtype": "float32", "sparse": false, "ragged": false, "name": "conv3d_223_input"}}, {"class_name": "Conv3D", "config": {"name": "conv3d_223", "trainable": true, "dtype": "float32", "filters": 32, "kernel_size": [1, 1, 1], "strides": [1, 1, 1], "padding": "valid", "data_format": "channels_last", "dilation_rate": [1, 1, 1], "groups": 1, "activation": "linear", "use_bias": false, "kernel_initializer": {"class_name": "VarianceScaling", "config": {"scale": 1.0, "mode": "fan_avg", "distribution": "uniform", "seed": null}}, "bias_initializer": {"class_name": "Zeros", "config": {}}, "kernel_regularizer": null, "bias_regularizer": null, "activity_regularizer": null, "kernel_constraint": null, "bias_constraint": null}}, {"class_name": "BatchNormalization", "config": {"name": "batch_normalization_214", "trainable": true, "dtype": "float32", "axis": [4], "momentum": 0.99, "epsilon": 0.001, "center": true, "scale": true, "beta_initializer": {"class_name": "Zeros", "config": {}}, "gamma_initializer": {"class_name": "Ones", "config": {}}, "moving_mean_initializer": {"class_name": "Zeros", "config": {}}, "moving_variance_initializer": {"class_name": "Ones", "config": {}}, "beta_regularizer": null, "gamma_regularizer": null, "beta_constraint": null, "gamma_constraint": null}}]}, "name": "sequential_150", "inbound_nodes": [[["max_pooling3d_5", 0, 0, {}]]]}, {"class_name": "BatchNormalization", "config": {"name": "batch_normalization_270", "trainable": true, "dtype": "float32", "axis": [4], "momentum": 0.99, "epsilon": 0.001, "center": true, "scale": true, "beta_initializer": {"class_name": "Zeros", "config": {}}, "gamma_initializer": {"class_name": "Ones", "config": {}}, "moving_mean_initializer": {"class_name": "Zeros", "config": {}}, "moving_variance_initializer": {"class_name": "Ones", "config": {}}, "beta_regularizer": null, "gamma_regularizer": null, "beta_constraint": null, "gamma_constraint": null}, "name": "batch_normalization_270", "inbound_nodes": [[["conv3d_282", 0, 0, {}]]]}, {"class_name": "Sequential", "config": {"name": "sequential_187", "layers": [{"class_name": "InputLayer", "config": {"batch_input_shape": [null, 2, 56, 56, 80], "dtype": "float32", "sparse": false, "ragged": false, "name": "conv3d_279_input"}}, {"class_name": "Conv3D", "config": {"name": "conv3d_279", "trainable": true, "dtype": "float32", "filters": 256, "kernel_size": [1, 1, 1], "strides": [1, 1, 1], "padding": "valid", "data_format": "channels_last", "dilation_rate": [1, 1, 1], "groups": 1, "activation": "linear", "use_bias": false, "kernel_initializer": {"class_name": "VarianceScaling", "config": {"scale": 1.0, "mode": "fan_avg", "distribution": "uniform", "seed": null}}, "bias_initializer": {"class_name": "Zeros", "config": {}}, "kernel_regularizer": null, "bias_regularizer": null, "activity_regularizer": null, "kernel_constraint": null, "bias_constraint": null}}, {"class_name": "BatchNormalization", "config": {"name": "batch_normalization_267", "trainable": true, "dtype": "float32", "axis": [4], "momentum": 0.99, "epsilon": 0.001, "center": true, "scale": true, "beta_initializer": {"class_name": "Zeros", "config": {}}, "gamma_initializer": {"class_name": "Ones", "config": {}}, "moving_mean_initializer": {"class_name": "Zeros", "config": {}}, "moving_variance_initializer": {"class_name": "Ones", "config": {}}, "beta_regularizer": null, "gamma_regularizer": null, "beta_constraint": null, "gamma_constraint": null}}]}, "name": "sequential_187", "inbound_nodes": [[["concatenate_11", 0, 0, {}]]]}, {"class_name": "Add", "config": {"name": "add_65", "trainable": true, "dtype": "float32"}, "name": "add_65", "inbound_nodes": [[["batch_normalization_217", 0, 0, {}], ["sequential_150", 1, 0, {}]]]}, {"class_name": "Add", "config": {"name": "add_81", "trainable": true, "dtype": "float32"}, "name": "add_81", "inbound_nodes": [[["batch_normalization_270", 0, 0, {}], ["sequential_187", 1, 0, {}]]]}, {"class_name": "ReLU", "config": {"name": "re_lu_200", "trainable": true, "dtype": "float32", "max_value": null, "negative_slope": 0.0, "threshold": 0.0}, "name": "re_lu_200", "inbound_nodes": [[["add_65", 0, 0, {}]]]}, {"class_name": "ReLU", "config": {"name": "re_lu_249", "trainable": true, "dtype": "float32", "max_value": null, "negative_slope": 0.0, "threshold": 0.0}, "name": "re_lu_249", "inbound_nodes": [[["add_81", 0, 0, {}]]]}, {"class_name": "Sequential", "config": {"name": "sequential_153", "layers": [{"class_name": "InputLayer", "config": {"batch_input_shape": [null, 13, 56, 56, 32], "dtype": "float32", "sparse": false, "ragged": false, "name": "conv3d_227_input"}}, {"class_name": "Conv3D", "config": {"name": "conv3d_227", "trainable": true, "dtype": "float32", "filters": 8, "kernel_size": [3, 1, 1], "strides": [1, 1, 1], "padding": "same", "data_format": "channels_last", "dilation_rate": [1, 1, 1], "groups": 1, "activation": "linear", "use_bias": false, "kernel_initializer": {"class_name": "VarianceScaling", "config": {"scale": 1.0, "mode": "fan_avg", "distribution": "uniform", "seed": null}}, "bias_initializer": {"class_name": "Zeros", "config": {}}, "kernel_regularizer": null, "bias_regularizer": null, "activity_regularizer": null, "kernel_constraint": null, "bias_constraint": null}}, {"class_name": "BatchNormalization", "config": {"name": "batch_normalization_218", "trainable": true, "dtype": "float32", "axis": [4], "momentum": 0.99, "epsilon": 0.001, "center": true, "scale": true, "beta_initializer": {"class_name": "Zeros", "config": {}}, "gamma_initializer": {"class_name": "Ones", "config": {}}, "moving_mean_initializer": {"class_name": "Zeros", "config": {}}, "moving_variance_initializer": {"class_name": "Ones", "config": {}}, "beta_regularizer": null, "gamma_regularizer": null, "beta_constraint": null, "gamma_constraint": null}}, {"class_name": "ReLU", "config": {"name": "re_lu_201", "trainable": true, "dtype": "float32", "max_value": null, "negative_slope": 0.0, "threshold": 0.0}}]}, "name": "sequential_153", "inbound_nodes": [[["re_lu_200", 0, 0, {}]]]}, {"class_name": "Sequential", "config": {"name": "sequential_190", "layers": [{"class_name": "InputLayer", "config": {"batch_input_shape": [null, 2, 56, 56, 256], "dtype": "float32", "sparse": false, "ragged": false, "name": "conv3d_283_input"}}, {"class_name": "Conv3D", "config": {"name": "conv3d_283", "trainable": true, "dtype": "float32", "filters": 64, "kernel_size": [1, 1, 1], "strides": [1, 1, 1], "padding": "same", "data_format": "channels_last", "dilation_rate": [1, 1, 1], "groups": 1, "activation": "linear", "use_bias": false, "kernel_initializer": {"class_name": "VarianceScaling", "config": {"scale": 1.0, "mode": "fan_avg", "distribution": "uniform", "seed": null}}, "bias_initializer": {"class_name": "Zeros", "config": {}}, "kernel_regularizer": null, "bias_regularizer": null, "activity_regularizer": null, "kernel_constraint": null, "bias_constraint": null}}, {"class_name": "BatchNormalization", "config": {"name": "batch_normalization_271", "trainable": true, "dtype": "float32", "axis": [4], "momentum": 0.99, "epsilon": 0.001, "center": true, "scale": true, "beta_initializer": {"class_name": "Zeros", "config": {}}, "gamma_initializer": {"class_name": "Ones", "config": {}}, "moving_mean_initializer": {"class_name": "Zeros", "config": {}}, "moving_variance_initializer": {"class_name": "Ones", "config": {}}, "beta_regularizer": null, "gamma_regularizer": null, "beta_constraint": null, "gamma_constraint": null}}, {"class_name": "ReLU", "config": {"name": "re_lu_250", "trainable": true, "dtype": "float32", "max_value": null, "negative_slope": 0.0, "threshold": 0.0}}]}, "name": "sequential_190", "inbound_nodes": [[["re_lu_249", 0, 0, {}]]]}, {"class_name": "Sequential", "config": {"name": "sequential_154", "layers": [{"class_name": "InputLayer", "config": {"batch_input_shape": [null, 13, 56, 56, 8], "dtype": "float32", "sparse": false, "ragged": false, "name": "conv3d_228_input"}}, {"class_name": "Conv3D", "config": {"name": "conv3d_228", "trainable": true, "dtype": "float32", "filters": 8, "kernel_size": [1, 3, 3], "strides": [1, 1, 1], "padding": "same", "data_format": "channels_last", "dilation_rate": [1, 1, 1], "groups": 1, "activation": "linear", "use_bias": false, "kernel_initializer": {"class_name": "VarianceScaling", "config": {"scale": 1.0, "mode": "fan_avg", "distribution": "uniform", "seed": null}}, "bias_initializer": {"class_name": "Zeros", "config": {}}, "kernel_regularizer": null, "bias_regularizer": null, "activity_regularizer": null, "kernel_constraint": null, "bias_constraint": null}}, {"class_name": "BatchNormalization", "config": {"name": "batch_normalization_219", "trainable": true, "dtype": "float32", "axis": [4], "momentum": 0.99, "epsilon": 0.001, "center": true, "scale": true, "beta_initializer": {"class_name": "Zeros", "config": {}}, "gamma_initializer": {"class_name": "Ones", "config": {}}, "moving_mean_initializer": {"class_name": "Zeros", "config": {}}, "moving_variance_initializer": {"class_name": "Ones", "config": {}}, "beta_regularizer": null, "gamma_regularizer": null, "beta_constraint": null, "gamma_constraint": null}}, {"class_name": "ReLU", "config": {"name": "re_lu_202", "trainable": true, "dtype": "float32", "max_value": null, "negative_slope": 0.0, "threshold": 0.0}}]}, "name": "sequential_154", "inbound_nodes": [[["sequential_153", 1, 0, {}]]]}, {"class_name": "Sequential", "config": {"name": "sequential_191", "layers": [{"class_name": "InputLayer", "config": {"batch_input_shape": [null, 2, 56, 56, 64], "dtype": "float32", "sparse": false, "ragged": false, "name": "conv3d_284_input"}}, {"class_name": "Conv3D", "config": {"name": "conv3d_284", "trainable": true, "dtype": "float32", "filters": 64, "kernel_size": [1, 3, 3], "strides": [1, 1, 1], "padding": "same", "data_format": "channels_last", "dilation_rate": [1, 1, 1], "groups": 1, "activation": "linear", "use_bias": false, "kernel_initializer": {"class_name": "VarianceScaling", "config": {"scale": 1.0, "mode": "fan_avg", "distribution": "uniform", "seed": null}}, "bias_initializer": {"class_name": "Zeros", "config": {}}, "kernel_regularizer": null, "bias_regularizer": null, "activity_regularizer": null, "kernel_constraint": null, "bias_constraint": null}}, {"class_name": "BatchNormalization", "config": {"name": "batch_normalization_272", "trainable": true, "dtype": "float32", "axis": [4], "momentum": 0.99, "epsilon": 0.001, "center": true, "scale": true, "beta_initializer": {"class_name": "Zeros", "config": {}}, "gamma_initializer": {"class_name": "Ones", "config": {}}, "moving_mean_initializer": {"class_name": "Zeros", "config": {}}, "moving_variance_initializer": {"class_name": "Ones", "config": {}}, "beta_regularizer": null, "gamma_regularizer": null, "beta_constraint": null, "gamma_constraint": null}}, {"class_name": "ReLU", "config": {"name": "re_lu_251", "trainable": true, "dtype": "float32", "max_value": null, "negative_slope": 0.0, "threshold": 0.0}}]}, "name": "sequential_191", "inbound_nodes": [[["sequential_190", 1, 0, {}]]]}, {"class_name": "Conv3D", "config": {"name": "conv3d_229", "trainable": true, "dtype": "float32", "filters": 32, "kernel_size": [1, 1, 1], "strides": [1, 1, 1], "padding": "valid", "data_format": "channels_last", "dilation_rate": [1, 1, 1], "groups": 1, "activation": "linear", "use_bias": false, "kernel_initializer": {"class_name": "VarianceScaling", "config": {"scale": 1.0, "mode": "fan_avg", "distribution": "uniform", "seed": null}}, "bias_initializer": {"class_name": "Zeros", "config": {}}, "kernel_regularizer": null, "bias_regularizer": null, "activity_regularizer": null, "kernel_constraint": null, "bias_constraint": null}, "name": "conv3d_229", "inbound_nodes": [[["sequential_154", 1, 0, {}]]]}, {"class_name": "Conv3D", "config": {"name": "conv3d_285", "trainable": true, "dtype": "float32", "filters": 256, "kernel_size": [1, 1, 1], "strides": [1, 1, 1], "padding": "valid", "data_format": "channels_last", "dilation_rate": [1, 1, 1], "groups": 1, "activation": "linear", "use_bias": false, "kernel_initializer": {"class_name": "VarianceScaling", "config": {"scale": 1.0, "mode": "fan_avg", "distribution": "uniform", "seed": null}}, "bias_initializer": {"class_name": "Zeros", "config": {}}, "kernel_regularizer": null, "bias_regularizer": null, "activity_regularizer": null, "kernel_constraint": null, "bias_constraint": null}, "name": "conv3d_285", "inbound_nodes": [[["sequential_191", 1, 0, {}]]]}, {"class_name": "BatchNormalization", "config": {"name": "batch_normalization_220", "trainable": true, "dtype": "float32", "axis": [4], "momentum": 0.99, "epsilon": 0.001, "center": true, "scale": true, "beta_initializer": {"class_name": "Zeros", "config": {}}, "gamma_initializer": {"class_name": "Ones", "config": {}}, "moving_mean_initializer": {"class_name": "Zeros", "config": {}}, "moving_variance_initializer": {"class_name": "Ones", "config": {}}, "beta_regularizer": null, "gamma_regularizer": null, "beta_constraint": null, "gamma_constraint": null}, "name": "batch_normalization_220", "inbound_nodes": [[["conv3d_229", 0, 0, {}]]]}, {"class_name": "BatchNormalization", "config": {"name": "batch_normalization_273", "trainable": true, "dtype": "float32", "axis": [4], "momentum": 0.99, "epsilon": 0.001, "center": true, "scale": true, "beta_initializer": {"class_name": "Zeros", "config": {}}, "gamma_initializer": {"class_name": "Ones", "config": {}}, "moving_mean_initializer": {"class_name": "Zeros", "config": {}}, "moving_variance_initializer": {"class_name": "Ones", "config": {}}, "beta_regularizer": null, "gamma_regularizer": null, "beta_constraint": null, "gamma_constraint": null}, "name": "batch_normalization_273", "inbound_nodes": [[["conv3d_285", 0, 0, {}]]]}, {"class_name": "Add", "config": {"name": "add_66", "trainable": true, "dtype": "float32"}, "name": "add_66", "inbound_nodes": [[["batch_normalization_220", 0, 0, {}], ["re_lu_200", 0, 0, {}]]]}, {"class_name": "Add", "config": {"name": "add_82", "trainable": true, "dtype": "float32"}, "name": "add_82", "inbound_nodes": [[["batch_normalization_273", 0, 0, {}], ["re_lu_249", 0, 0, {}]]]}, {"class_name": "ReLU", "config": {"name": "re_lu_203", "trainable": true, "dtype": "float32", "max_value": null, "negative_slope": 0.0, "threshold": 0.0}, "name": "re_lu_203", "inbound_nodes": [[["add_66", 0, 0, {}]]]}, {"class_name": "ReLU", "config": {"name": "re_lu_252", "trainable": true, "dtype": "float32", "max_value": null, "negative_slope": 0.0, "threshold": 0.0}, "name": "re_lu_252", "inbound_nodes": [[["add_82", 0, 0, {}]]]}, {"class_name": "Sequential", "config": {"name": "sequential_155", "layers": [{"class_name": "InputLayer", "config": {"batch_input_shape": [null, 13, 56, 56, 32], "dtype": "float32", "sparse": false, "ragged": false, "name": "conv3d_230_input"}}, {"class_name": "Conv3D", "config": {"name": "conv3d_230", "trainable": true, "dtype": "float32", "filters": 8, "kernel_size": [3, 1, 1], "strides": [1, 1, 1], "padding": "same", "data_format": "channels_last", "dilation_rate": [1, 1, 1], "groups": 1, "activation": "linear", "use_bias": false, "kernel_initializer": {"class_name": "VarianceScaling", "config": {"scale": 1.0, "mode": "fan_avg", "distribution": "uniform", "seed": null}}, "bias_initializer": {"class_name": "Zeros", "config": {}}, "kernel_regularizer": null, "bias_regularizer": null, "activity_regularizer": null, "kernel_constraint": null, "bias_constraint": null}}, {"class_name": "BatchNormalization", "config": {"name": "batch_normalization_221", "trainable": true, "dtype": "float32", "axis": [4], "momentum": 0.99, "epsilon": 0.001, "center": true, "scale": true, "beta_initializer": {"class_name": "Zeros", "config": {}}, "gamma_initializer": {"class_name": "Ones", "config": {}}, "moving_mean_initializer": {"class_name": "Zeros", "config": {}}, "moving_variance_initializer": {"class_name": "Ones", "config": {}}, "beta_regularizer": null, "gamma_regularizer": null, "beta_constraint": null, "gamma_constraint": null}}, {"class_name": "ReLU", "config": {"name": "re_lu_204", "trainable": true, "dtype": "float32", "max_value": null, "negative_slope": 0.0, "threshold": 0.0}}]}, "name": "sequential_155", "inbound_nodes": [[["re_lu_203", 0, 0, {}]]]}, {"class_name": "Sequential", "config": {"name": "sequential_192", "layers": [{"class_name": "InputLayer", "config": {"batch_input_shape": [null, 2, 56, 56, 256], "dtype": "float32", "sparse": false, "ragged": false, "name": "conv3d_286_input"}}, {"class_name": "Conv3D", "config": {"name": "conv3d_286", "trainable": true, "dtype": "float32", "filters": 64, "kernel_size": [1, 1, 1], "strides": [1, 1, 1], "padding": "same", "data_format": "channels_last", "dilation_rate": [1, 1, 1], "groups": 1, "activation": "linear", "use_bias": false, "kernel_initializer": {"class_name": "VarianceScaling", "config": {"scale": 1.0, "mode": "fan_avg", "distribution": "uniform", "seed": null}}, "bias_initializer": {"class_name": "Zeros", "config": {}}, "kernel_regularizer": null, "bias_regularizer": null, "activity_regularizer": null, "kernel_constraint": null, "bias_constraint": null}}, {"class_name": "BatchNormalization", "config": {"name": "batch_normalization_274", "trainable": true, "dtype": "float32", "axis": [4], "momentum": 0.99, "epsilon": 0.001, "center": true, "scale": true, "beta_initializer": {"class_name": "Zeros", "config": {}}, "gamma_initializer": {"class_name": "Ones", "config": {}}, "moving_mean_initializer": {"class_name": "Zeros", "config": {}}, "moving_variance_initializer": {"class_name": "Ones", "config": {}}, "beta_regularizer": null, "gamma_regularizer": null, "beta_constraint": null, "gamma_constraint": null}}, {"class_name": "ReLU", "config": {"name": "re_lu_253", "trainable": true, "dtype": "float32", "max_value": null, "negative_slope": 0.0, "threshold": 0.0}}]}, "name": "sequential_192", "inbound_nodes": [[["re_lu_252", 0, 0, {}]]]}, {"class_name": "Sequential", "config": {"name": "sequential_156", "layers": [{"class_name": "InputLayer", "config": {"batch_input_shape": [null, 13, 56, 56, 8], "dtype": "float32", "sparse": false, "ragged": false, "name": "conv3d_231_input"}}, {"class_name": "Conv3D", "config": {"name": "conv3d_231", "trainable": true, "dtype": "float32", "filters": 8, "kernel_size": [1, 3, 3], "strides": [1, 1, 1], "padding": "same", "data_format": "channels_last", "dilation_rate": [1, 1, 1], "groups": 1, "activation": "linear", "use_bias": false, "kernel_initializer": {"class_name": "VarianceScaling", "config": {"scale": 1.0, "mode": "fan_avg", "distribution": "uniform", "seed": null}}, "bias_initializer": {"class_name": "Zeros", "config": {}}, "kernel_regularizer": null, "bias_regularizer": null, "activity_regularizer": null, "kernel_constraint": null, "bias_constraint": null}}, {"class_name": "BatchNormalization", "config": {"name": "batch_normalization_222", "trainable": true, "dtype": "float32", "axis": [4], "momentum": 0.99, "epsilon": 0.001, "center": true, "scale": true, "beta_initializer": {"class_name": "Zeros", "config": {}}, "gamma_initializer": {"class_name": "Ones", "config": {}}, "moving_mean_initializer": {"class_name": "Zeros", "config": {}}, "moving_variance_initializer": {"class_name": "Ones", "config": {}}, "beta_regularizer": null, "gamma_regularizer": null, "beta_constraint": null, "gamma_constraint": null}}, {"class_name": "ReLU", "config": {"name": "re_lu_205", "trainable": true, "dtype": "float32", "max_value": null, "negative_slope": 0.0, "threshold": 0.0}}]}, "name": "sequential_156", "inbound_nodes": [[["sequential_155", 1, 0, {}]]]}, {"class_name": "Sequential", "config": {"name": "sequential_193", "layers": [{"class_name": "InputLayer", "config": {"batch_input_shape": [null, 2, 56, 56, 64], "dtype": "float32", "sparse": false, "ragged": false, "name": "conv3d_287_input"}}, {"class_name": "Conv3D", "config": {"name": "conv3d_287", "trainable": true, "dtype": "float32", "filters": 64, "kernel_size": [1, 3, 3], "strides": [1, 1, 1], "padding": "same", "data_format": "channels_last", "dilation_rate": [1, 1, 1], "groups": 1, "activation": "linear", "use_bias": false, "kernel_initializer": {"class_name": "VarianceScaling", "config": {"scale": 1.0, "mode": "fan_avg", "distribution": "uniform", "seed": null}}, "bias_initializer": {"class_name": "Zeros", "config": {}}, "kernel_regularizer": null, "bias_regularizer": null, "activity_regularizer": null, "kernel_constraint": null, "bias_constraint": null}}, {"class_name": "BatchNormalization", "config": {"name": "batch_normalization_275", "trainable": true, "dtype": "float32", "axis": [4], "momentum": 0.99, "epsilon": 0.001, "center": true, "scale": true, "beta_initializer": {"class_name": "Zeros", "config": {}}, "gamma_initializer": {"class_name": "Ones", "config": {}}, "moving_mean_initializer": {"class_name": "Zeros", "config": {}}, "moving_variance_initializer": {"class_name": "Ones", "config": {}}, "beta_regularizer": null, "gamma_regularizer": null, "beta_constraint": null, "gamma_constraint": null}}, {"class_name": "ReLU", "config": {"name": "re_lu_254", "trainable": true, "dtype": "float32", "max_value": null, "negative_slope": 0.0, "threshold": 0.0}}]}, "name": "sequential_193", "inbound_nodes": [[["sequential_192", 1, 0, {}]]]}, {"class_name": "Conv3D", "config": {"name": "conv3d_232", "trainable": true, "dtype": "float32", "filters": 32, "kernel_size": [1, 1, 1], "strides": [1, 1, 1], "padding": "valid", "data_format": "channels_last", "dilation_rate": [1, 1, 1], "groups": 1, "activation": "linear", "use_bias": false, "kernel_initializer": {"class_name": "VarianceScaling", "config": {"scale": 1.0, "mode": "fan_avg", "distribution": "uniform", "seed": null}}, "bias_initializer": {"class_name": "Zeros", "config": {}}, "kernel_regularizer": null, "bias_regularizer": null, "activity_regularizer": null, "kernel_constraint": null, "bias_constraint": null}, "name": "conv3d_232", "inbound_nodes": [[["sequential_156", 1, 0, {}]]]}, {"class_name": "Conv3D", "config": {"name": "conv3d_288", "trainable": true, "dtype": "float32", "filters": 256, "kernel_size": [1, 1, 1], "strides": [1, 1, 1], "padding": "valid", "data_format": "channels_last", "dilation_rate": [1, 1, 1], "groups": 1, "activation": "linear", "use_bias": false, "kernel_initializer": {"class_name": "VarianceScaling", "config": {"scale": 1.0, "mode": "fan_avg", "distribution": "uniform", "seed": null}}, "bias_initializer": {"class_name": "Zeros", "config": {}}, "kernel_regularizer": null, "bias_regularizer": null, "activity_regularizer": null, "kernel_constraint": null, "bias_constraint": null}, "name": "conv3d_288", "inbound_nodes": [[["sequential_193", 1, 0, {}]]]}, {"class_name": "BatchNormalization", "config": {"name": "batch_normalization_223", "trainable": true, "dtype": "float32", "axis": [4], "momentum": 0.99, "epsilon": 0.001, "center": true, "scale": true, "beta_initializer": {"class_name": "Zeros", "config": {}}, "gamma_initializer": {"class_name": "Ones", "config": {}}, "moving_mean_initializer": {"class_name": "Zeros", "config": {}}, "moving_variance_initializer": {"class_name": "Ones", "config": {}}, "beta_regularizer": null, "gamma_regularizer": null, "beta_constraint": null, "gamma_constraint": null}, "name": "batch_normalization_223", "inbound_nodes": [[["conv3d_232", 0, 0, {}]]]}, {"class_name": "BatchNormalization", "config": {"name": "batch_normalization_276", "trainable": true, "dtype": "float32", "axis": [4], "momentum": 0.99, "epsilon": 0.001, "center": true, "scale": true, "beta_initializer": {"class_name": "Zeros", "config": {}}, "gamma_initializer": {"class_name": "Ones", "config": {}}, "moving_mean_initializer": {"class_name": "Zeros", "config": {}}, "moving_variance_initializer": {"class_name": "Ones", "config": {}}, "beta_regularizer": null, "gamma_regularizer": null, "beta_constraint": null, "gamma_constraint": null}, "name": "batch_normalization_276", "inbound_nodes": [[["conv3d_288", 0, 0, {}]]]}, {"class_name": "Add", "config": {"name": "add_67", "trainable": true, "dtype": "float32"}, "name": "add_67", "inbound_nodes": [[["batch_normalization_223", 0, 0, {}], ["re_lu_203", 0, 0, {}]]]}, {"class_name": "Add", "config": {"name": "add_83", "trainable": true, "dtype": "float32"}, "name": "add_83", "inbound_nodes": [[["batch_normalization_276", 0, 0, {}], ["re_lu_252", 0, 0, {}]]]}, {"class_name": "ReLU", "config": {"name": "re_lu_206", "trainable": true, "dtype": "float32", "max_value": null, "negative_slope": 0.0, "threshold": 0.0}, "name": "re_lu_206", "inbound_nodes": [[["add_67", 0, 0, {}]]]}, {"class_name": "ReLU", "config": {"name": "re_lu_255", "trainable": true, "dtype": "float32", "max_value": null, "negative_slope": 0.0, "threshold": 0.0}, "name": "re_lu_255", "inbound_nodes": [[["add_83", 0, 0, {}]]]}, {"class_name": "Conv3D", "config": {"name": "conv3d_233", "trainable": true, "dtype": "float32", "filters": 64, "kernel_size": [5, 1, 1], "strides": [8, 1, 1], "padding": "same", "data_format": "channels_last", "dilation_rate": [1, 1, 1], "groups": 1, "activation": "linear", "use_bias": false, "kernel_initializer": {"class_name": "VarianceScaling", "config": {"scale": 1.0, "mode": "fan_avg", "distribution": "uniform", "seed": null}}, "bias_initializer": {"class_name": "Zeros", "config": {}}, "kernel_regularizer": null, "bias_regularizer": null, "activity_regularizer": null, "kernel_constraint": null, "bias_constraint": null}, "name": "conv3d_233", "inbound_nodes": [[["re_lu_206", 0, 0, {}]]]}, {"class_name": "Concatenate", "config": {"name": "concatenate_12", "trainable": true, "dtype": "float32", "axis": -1}, "name": "concatenate_12", "inbound_nodes": [[["re_lu_255", 0, 0, {}], ["conv3d_233", 0, 0, {}]]]}, {"class_name": "Sequential", "config": {"name": "sequential_158", "layers": [{"class_name": "InputLayer", "config": {"batch_input_shape": [null, 13, 56, 56, 32], "dtype": "float32", "sparse": false, "ragged": false, "name": "conv3d_235_input"}}, {"class_name": "Conv3D", "config": {"name": "conv3d_235", "trainable": true, "dtype": "float32", "filters": 16, "kernel_size": [3, 1, 1], "strides": [1, 1, 1], "padding": "same", "data_format": "channels_last", "dilation_rate": [1, 1, 1], "groups": 1, "activation": "linear", "use_bias": false, "kernel_initializer": {"class_name": "VarianceScaling", "config": {"scale": 1.0, "mode": "fan_avg", "distribution": "uniform", "seed": null}}, "bias_initializer": {"class_name": "Zeros", "config": {}}, "kernel_regularizer": null, "bias_regularizer": null, "activity_regularizer": null, "kernel_constraint": null, "bias_constraint": null}}, {"class_name": "BatchNormalization", "config": {"name": "batch_normalization_225", "trainable": true, "dtype": "float32", "axis": [4], "momentum": 0.99, "epsilon": 0.001, "center": true, "scale": true, "beta_initializer": {"class_name": "Zeros", "config": {}}, "gamma_initializer": {"class_name": "Ones", "config": {}}, "moving_mean_initializer": {"class_name": "Zeros", "config": {}}, "moving_variance_initializer": {"class_name": "Ones", "config": {}}, "beta_regularizer": null, "gamma_regularizer": null, "beta_constraint": null, "gamma_constraint": null}}, {"class_name": "ReLU", "config": {"name": "re_lu_207", "trainable": true, "dtype": "float32", "max_value": null, "negative_slope": 0.0, "threshold": 0.0}}]}, "name": "sequential_158", "inbound_nodes": [[["re_lu_206", 0, 0, {}]]]}, {"class_name": "Sequential", "config": {"name": "sequential_195", "layers": [{"class_name": "InputLayer", "config": {"batch_input_shape": [null, 2, 56, 56, 320], "dtype": "float32", "sparse": false, "ragged": false, "name": "conv3d_290_input"}}, {"class_name": "Conv3D", "config": {"name": "conv3d_290", "trainable": true, "dtype": "float32", "filters": 128, "kernel_size": [1, 1, 1], "strides": [1, 1, 1], "padding": "same", "data_format": "channels_last", "dilation_rate": [1, 1, 1], "groups": 1, "activation": "linear", "use_bias": false, "kernel_initializer": {"class_name": "VarianceScaling", "config": {"scale": 1.0, "mode": "fan_avg", "distribution": "uniform", "seed": null}}, "bias_initializer": {"class_name": "Zeros", "config": {}}, "kernel_regularizer": null, "bias_regularizer": null, "activity_regularizer": null, "kernel_constraint": null, "bias_constraint": null}}, {"class_name": "BatchNormalization", "config": {"name": "batch_normalization_278", "trainable": true, "dtype": "float32", "axis": [4], "momentum": 0.99, "epsilon": 0.001, "center": true, "scale": true, "beta_initializer": {"class_name": "Zeros", "config": {}}, "gamma_initializer": {"class_name": "Ones", "config": {}}, "moving_mean_initializer": {"class_name": "Zeros", "config": {}}, "moving_variance_initializer": {"class_name": "Ones", "config": {}}, "beta_regularizer": null, "gamma_regularizer": null, "beta_constraint": null, "gamma_constraint": null}}, {"class_name": "ReLU", "config": {"name": "re_lu_256", "trainable": true, "dtype": "float32", "max_value": null, "negative_slope": 0.0, "threshold": 0.0}}]}, "name": "sequential_195", "inbound_nodes": [[["concatenate_12", 0, 0, {}]]]}, {"class_name": "Sequential", "config": {"name": "sequential_159", "layers": [{"class_name": "InputLayer", "config": {"batch_input_shape": [null, 13, 56, 56, 16], "dtype": "float32", "sparse": false, "ragged": false, "name": "conv3d_236_input"}}, {"class_name": "Conv3D", "config": {"name": "conv3d_236", "trainable": true, "dtype": "float32", "filters": 16, "kernel_size": [1, 3, 3], "strides": [1, 2, 2], "padding": "same", "data_format": "channels_last", "dilation_rate": [1, 1, 1], "groups": 1, "activation": "linear", "use_bias": false, "kernel_initializer": {"class_name": "VarianceScaling", "config": {"scale": 1.0, "mode": "fan_avg", "distribution": "uniform", "seed": null}}, "bias_initializer": {"class_name": "Zeros", "config": {}}, "kernel_regularizer": null, "bias_regularizer": null, "activity_regularizer": null, "kernel_constraint": null, "bias_constraint": null}}, {"class_name": "BatchNormalization", "config": {"name": "batch_normalization_226", "trainable": true, "dtype": "float32", "axis": [4], "momentum": 0.99, "epsilon": 0.001, "center": true, "scale": true, "beta_initializer": {"class_name": "Zeros", "config": {}}, "gamma_initializer": {"class_name": "Ones", "config": {}}, "moving_mean_initializer": {"class_name": "Zeros", "config": {}}, "moving_variance_initializer": {"class_name": "Ones", "config": {}}, "beta_regularizer": null, "gamma_regularizer": null, "beta_constraint": null, "gamma_constraint": null}}, {"class_name": "ReLU", "config": {"name": "re_lu_208", "trainable": true, "dtype": "float32", "max_value": null, "negative_slope": 0.0, "threshold": 0.0}}]}, "name": "sequential_159", "inbound_nodes": [[["sequential_158", 1, 0, {}]]]}, {"class_name": "Sequential", "config": {"name": "sequential_196", "layers": [{"class_name": "InputLayer", "config": {"batch_input_shape": [null, 2, 56, 56, 128], "dtype": "float32", "sparse": false, "ragged": false, "name": "conv3d_291_input"}}, {"class_name": "Conv3D", "config": {"name": "conv3d_291", "trainable": true, "dtype": "float32", "filters": 128, "kernel_size": [1, 3, 3], "strides": [1, 2, 2], "padding": "same", "data_format": "channels_last", "dilation_rate": [1, 1, 1], "groups": 1, "activation": "linear", "use_bias": false, "kernel_initializer": {"class_name": "VarianceScaling", "config": {"scale": 1.0, "mode": "fan_avg", "distribution": "uniform", "seed": null}}, "bias_initializer": {"class_name": "Zeros", "config": {}}, "kernel_regularizer": null, "bias_regularizer": null, "activity_regularizer": null, "kernel_constraint": null, "bias_constraint": null}}, {"class_name": "BatchNormalization", "config": {"name": "batch_normalization_279", "trainable": true, "dtype": "float32", "axis": [4], "momentum": 0.99, "epsilon": 0.001, "center": true, "scale": true, "beta_initializer": {"class_name": "Zeros", "config": {}}, "gamma_initializer": {"class_name": "Ones", "config": {}}, "moving_mean_initializer": {"class_name": "Zeros", "config": {}}, "moving_variance_initializer": {"class_name": "Ones", "config": {}}, "beta_regularizer": null, "gamma_regularizer": null, "beta_constraint": null, "gamma_constraint": null}}, {"class_name": "ReLU", "config": {"name": "re_lu_257", "trainable": true, "dtype": "float32", "max_value": null, "negative_slope": 0.0, "threshold": 0.0}}]}, "name": "sequential_196", "inbound_nodes": [[["sequential_195", 1, 0, {}]]]}, {"class_name": "Conv3D", "config": {"name": "conv3d_237", "trainable": true, "dtype": "float32", "filters": 64, "kernel_size": [1, 1, 1], "strides": [1, 1, 1], "padding": "valid", "data_format": "channels_last", "dilation_rate": [1, 1, 1], "groups": 1, "activation": "linear", "use_bias": false, "kernel_initializer": {"class_name": "VarianceScaling", "config": {"scale": 1.0, "mode": "fan_avg", "distribution": "uniform", "seed": null}}, "bias_initializer": {"class_name": "Zeros", "config": {}}, "kernel_regularizer": null, "bias_regularizer": null, "activity_regularizer": null, "kernel_constraint": null, "bias_constraint": null}, "name": "conv3d_237", "inbound_nodes": [[["sequential_159", 1, 0, {}]]]}, {"class_name": "Conv3D", "config": {"name": "conv3d_292", "trainable": true, "dtype": "float32", "filters": 512, "kernel_size": [1, 1, 1], "strides": [1, 1, 1], "padding": "valid", "data_format": "channels_last", "dilation_rate": [1, 1, 1], "groups": 1, "activation": "linear", "use_bias": false, "kernel_initializer": {"class_name": "VarianceScaling", "config": {"scale": 1.0, "mode": "fan_avg", "distribution": "uniform", "seed": null}}, "bias_initializer": {"class_name": "Zeros", "config": {}}, "kernel_regularizer": null, "bias_regularizer": null, "activity_regularizer": null, "kernel_constraint": null, "bias_constraint": null}, "name": "conv3d_292", "inbound_nodes": [[["sequential_196", 1, 0, {}]]]}, {"class_name": "BatchNormalization", "config": {"name": "batch_normalization_227", "trainable": true, "dtype": "float32", "axis": [4], "momentum": 0.99, "epsilon": 0.001, "center": true, "scale": true, "beta_initializer": {"class_name": "Zeros", "config": {}}, "gamma_initializer": {"class_name": "Ones", "config": {}}, "moving_mean_initializer": {"class_name": "Zeros", "config": {}}, "moving_variance_initializer": {"class_name": "Ones", "config": {}}, "beta_regularizer": null, "gamma_regularizer": null, "beta_constraint": null, "gamma_constraint": null}, "name": "batch_normalization_227", "inbound_nodes": [[["conv3d_237", 0, 0, {}]]]}, {"class_name": "Sequential", "config": {"name": "sequential_157", "layers": [{"class_name": "InputLayer", "config": {"batch_input_shape": [null, 13, 56, 56, 32], "dtype": "float32", "sparse": false, "ragged": false, "name": "conv3d_234_input"}}, {"class_name": "Conv3D", "config": {"name": "conv3d_234", "trainable": true, "dtype": "float32", "filters": 64, "kernel_size": [1, 1, 1], "strides": [1, 2, 2], "padding": "valid", "data_format": "channels_last", "dilation_rate": [1, 1, 1], "groups": 1, "activation": "linear", "use_bias": false, "kernel_initializer": {"class_name": "VarianceScaling", "config": {"scale": 1.0, "mode": "fan_avg", "distribution": "uniform", "seed": null}}, "bias_initializer": {"class_name": "Zeros", "config": {}}, "kernel_regularizer": null, "bias_regularizer": null, "activity_regularizer": null, "kernel_constraint": null, "bias_constraint": null}}, {"class_name": "BatchNormalization", "config": {"name": "batch_normalization_224", "trainable": true, "dtype": "float32", "axis": [4], "momentum": 0.99, "epsilon": 0.001, "center": true, "scale": true, "beta_initializer": {"class_name": "Zeros", "config": {}}, "gamma_initializer": {"class_name": "Ones", "config": {}}, "moving_mean_initializer": {"class_name": "Zeros", "config": {}}, "moving_variance_initializer": {"class_name": "Ones", "config": {}}, "beta_regularizer": null, "gamma_regularizer": null, "beta_constraint": null, "gamma_constraint": null}}]}, "name": "sequential_157", "inbound_nodes": [[["re_lu_206", 0, 0, {}]]]}, {"class_name": "BatchNormalization", "config": {"name": "batch_normalization_280", "trainable": true, "dtype": "float32", "axis": [4], "momentum": 0.99, "epsilon": 0.001, "center": true, "scale": true, "beta_initializer": {"class_name": "Zeros", "config": {}}, "gamma_initializer": {"class_name": "Ones", "config": {}}, "moving_mean_initializer": {"class_name": "Zeros", "config": {}}, "moving_variance_initializer": {"class_name": "Ones", "config": {}}, "beta_regularizer": null, "gamma_regularizer": null, "beta_constraint": null, "gamma_constraint": null}, "name": "batch_normalization_280", "inbound_nodes": [[["conv3d_292", 0, 0, {}]]]}, {"class_name": "Sequential", "config": {"name": "sequential_194", "layers": [{"class_name": "InputLayer", "config": {"batch_input_shape": [null, 2, 56, 56, 320], "dtype": "float32", "sparse": false, "ragged": false, "name": "conv3d_289_input"}}, {"class_name": "Conv3D", "config": {"name": "conv3d_289", "trainable": true, "dtype": "float32", "filters": 512, "kernel_size": [1, 1, 1], "strides": [1, 2, 2], "padding": "valid", "data_format": "channels_last", "dilation_rate": [1, 1, 1], "groups": 1, "activation": "linear", "use_bias": false, "kernel_initializer": {"class_name": "VarianceScaling", "config": {"scale": 1.0, "mode": "fan_avg", "distribution": "uniform", "seed": null}}, "bias_initializer": {"class_name": "Zeros", "config": {}}, "kernel_regularizer": null, "bias_regularizer": null, "activity_regularizer": null, "kernel_constraint": null, "bias_constraint": null}}, {"class_name": "BatchNormalization", "config": {"name": "batch_normalization_277", "trainable": true, "dtype": "float32", "axis": [4], "momentum": 0.99, "epsilon": 0.001, "center": true, "scale": true, "beta_initializer": {"class_name": "Zeros", "config": {}}, "gamma_initializer": {"class_name": "Ones", "config": {}}, "moving_mean_initializer": {"class_name": "Zeros", "config": {}}, "moving_variance_initializer": {"class_name": "Ones", "config": {}}, "beta_regularizer": null, "gamma_regularizer": null, "beta_constraint": null, "gamma_constraint": null}}]}, "name": "sequential_194", "inbound_nodes": [[["concatenate_12", 0, 0, {}]]]}, {"class_name": "Add", "config": {"name": "add_68", "trainable": true, "dtype": "float32"}, "name": "add_68", "inbound_nodes": [[["batch_normalization_227", 0, 0, {}], ["sequential_157", 1, 0, {}]]]}, {"class_name": "Add", "config": {"name": "add_84", "trainable": true, "dtype": "float32"}, "name": "add_84", "inbound_nodes": [[["batch_normalization_280", 0, 0, {}], ["sequential_194", 1, 0, {}]]]}, {"class_name": "ReLU", "config": {"name": "re_lu_209", "trainable": true, "dtype": "float32", "max_value": null, "negative_slope": 0.0, "threshold": 0.0}, "name": "re_lu_209", "inbound_nodes": [[["add_68", 0, 0, {}]]]}, {"class_name": "ReLU", "config": {"name": "re_lu_258", "trainable": true, "dtype": "float32", "max_value": null, "negative_slope": 0.0, "threshold": 0.0}, "name": "re_lu_258", "inbound_nodes": [[["add_84", 0, 0, {}]]]}, {"class_name": "Sequential", "config": {"name": "sequential_160", "layers": [{"class_name": "InputLayer", "config": {"batch_input_shape": [null, 13, 28, 28, 64], "dtype": "float32", "sparse": false, "ragged": false, "name": "conv3d_238_input"}}, {"class_name": "Conv3D", "config": {"name": "conv3d_238", "trainable": true, "dtype": "float32", "filters": 16, "kernel_size": [3, 1, 1], "strides": [1, 1, 1], "padding": "same", "data_format": "channels_last", "dilation_rate": [1, 1, 1], "groups": 1, "activation": "linear", "use_bias": false, "kernel_initializer": {"class_name": "VarianceScaling", "config": {"scale": 1.0, "mode": "fan_avg", "distribution": "uniform", "seed": null}}, "bias_initializer": {"class_name": "Zeros", "config": {}}, "kernel_regularizer": null, "bias_regularizer": null, "activity_regularizer": null, "kernel_constraint": null, "bias_constraint": null}}, {"class_name": "BatchNormalization", "config": {"name": "batch_normalization_228", "trainable": true, "dtype": "float32", "axis": [4], "momentum": 0.99, "epsilon": 0.001, "center": true, "scale": true, "beta_initializer": {"class_name": "Zeros", "config": {}}, "gamma_initializer": {"class_name": "Ones", "config": {}}, "moving_mean_initializer": {"class_name": "Zeros", "config": {}}, "moving_variance_initializer": {"class_name": "Ones", "config": {}}, "beta_regularizer": null, "gamma_regularizer": null, "beta_constraint": null, "gamma_constraint": null}}, {"class_name": "ReLU", "config": {"name": "re_lu_210", "trainable": true, "dtype": "float32", "max_value": null, "negative_slope": 0.0, "threshold": 0.0}}]}, "name": "sequential_160", "inbound_nodes": [[["re_lu_209", 0, 0, {}]]]}, {"class_name": "Sequential", "config": {"name": "sequential_197", "layers": [{"class_name": "InputLayer", "config": {"batch_input_shape": [null, 2, 28, 28, 512], "dtype": "float32", "sparse": false, "ragged": false, "name": "conv3d_293_input"}}, {"class_name": "Conv3D", "config": {"name": "conv3d_293", "trainable": true, "dtype": "float32", "filters": 128, "kernel_size": [1, 1, 1], "strides": [1, 1, 1], "padding": "same", "data_format": "channels_last", "dilation_rate": [1, 1, 1], "groups": 1, "activation": "linear", "use_bias": false, "kernel_initializer": {"class_name": "VarianceScaling", "config": {"scale": 1.0, "mode": "fan_avg", "distribution": "uniform", "seed": null}}, "bias_initializer": {"class_name": "Zeros", "config": {}}, "kernel_regularizer": null, "bias_regularizer": null, "activity_regularizer": null, "kernel_constraint": null, "bias_constraint": null}}, {"class_name": "BatchNormalization", "config": {"name": "batch_normalization_281", "trainable": true, "dtype": "float32", "axis": [4], "momentum": 0.99, "epsilon": 0.001, "center": true, "scale": true, "beta_initializer": {"class_name": "Zeros", "config": {}}, "gamma_initializer": {"class_name": "Ones", "config": {}}, "moving_mean_initializer": {"class_name": "Zeros", "config": {}}, "moving_variance_initializer": {"class_name": "Ones", "config": {}}, "beta_regularizer": null, "gamma_regularizer": null, "beta_constraint": null, "gamma_constraint": null}}, {"class_name": "ReLU", "config": {"name": "re_lu_259", "trainable": true, "dtype": "float32", "max_value": null, "negative_slope": 0.0, "threshold": 0.0}}]}, "name": "sequential_197", "inbound_nodes": [[["re_lu_258", 0, 0, {}]]]}, {"class_name": "Sequential", "config": {"name": "sequential_161", "layers": [{"class_name": "InputLayer", "config": {"batch_input_shape": [null, 13, 28, 28, 16], "dtype": "float32", "sparse": false, "ragged": false, "name": "conv3d_239_input"}}, {"class_name": "Conv3D", "config": {"name": "conv3d_239", "trainable": true, "dtype": "float32", "filters": 16, "kernel_size": [1, 3, 3], "strides": [1, 1, 1], "padding": "same", "data_format": "channels_last", "dilation_rate": [1, 1, 1], "groups": 1, "activation": "linear", "use_bias": false, "kernel_initializer": {"class_name": "VarianceScaling", "config": {"scale": 1.0, "mode": "fan_avg", "distribution": "uniform", "seed": null}}, "bias_initializer": {"class_name": "Zeros", "config": {}}, "kernel_regularizer": null, "bias_regularizer": null, "activity_regularizer": null, "kernel_constraint": null, "bias_constraint": null}}, {"class_name": "BatchNormalization", "config": {"name": "batch_normalization_229", "trainable": true, "dtype": "float32", "axis": [4], "momentum": 0.99, "epsilon": 0.001, "center": true, "scale": true, "beta_initializer": {"class_name": "Zeros", "config": {}}, "gamma_initializer": {"class_name": "Ones", "config": {}}, "moving_mean_initializer": {"class_name": "Zeros", "config": {}}, "moving_variance_initializer": {"class_name": "Ones", "config": {}}, "beta_regularizer": null, "gamma_regularizer": null, "beta_constraint": null, "gamma_constraint": null}}, {"class_name": "ReLU", "config": {"name": "re_lu_211", "trainable": true, "dtype": "float32", "max_value": null, "negative_slope": 0.0, "threshold": 0.0}}]}, "name": "sequential_161", "inbound_nodes": [[["sequential_160", 1, 0, {}]]]}, {"class_name": "Sequential", "config": {"name": "sequential_198", "layers": [{"class_name": "InputLayer", "config": {"batch_input_shape": [null, 2, 28, 28, 128], "dtype": "float32", "sparse": false, "ragged": false, "name": "conv3d_294_input"}}, {"class_name": "Conv3D", "config": {"name": "conv3d_294", "trainable": true, "dtype": "float32", "filters": 128, "kernel_size": [1, 3, 3], "strides": [1, 1, 1], "padding": "same", "data_format": "channels_last", "dilation_rate": [1, 1, 1], "groups": 1, "activation": "linear", "use_bias": false, "kernel_initializer": {"class_name": "VarianceScaling", "config": {"scale": 1.0, "mode": "fan_avg", "distribution": "uniform", "seed": null}}, "bias_initializer": {"class_name": "Zeros", "config": {}}, "kernel_regularizer": null, "bias_regularizer": null, "activity_regularizer": null, "kernel_constraint": null, "bias_constraint": null}}, {"class_name": "BatchNormalization", "config": {"name": "batch_normalization_282", "trainable": true, "dtype": "float32", "axis": [4], "momentum": 0.99, "epsilon": 0.001, "center": true, "scale": true, "beta_initializer": {"class_name": "Zeros", "config": {}}, "gamma_initializer": {"class_name": "Ones", "config": {}}, "moving_mean_initializer": {"class_name": "Zeros", "config": {}}, "moving_variance_initializer": {"class_name": "Ones", "config": {}}, "beta_regularizer": null, "gamma_regularizer": null, "beta_constraint": null, "gamma_constraint": null}}, {"class_name": "ReLU", "config": {"name": "re_lu_260", "trainable": true, "dtype": "float32", "max_value": null, "negative_slope": 0.0, "threshold": 0.0}}]}, "name": "sequential_198", "inbound_nodes": [[["sequential_197", 1, 0, {}]]]}, {"class_name": "Conv3D", "config": {"name": "conv3d_240", "trainable": true, "dtype": "float32", "filters": 64, "kernel_size": [1, 1, 1], "strides": [1, 1, 1], "padding": "valid", "data_format": "channels_last", "dilation_rate": [1, 1, 1], "groups": 1, "activation": "linear", "use_bias": false, "kernel_initializer": {"class_name": "VarianceScaling", "config": {"scale": 1.0, "mode": "fan_avg", "distribution": "uniform", "seed": null}}, "bias_initializer": {"class_name": "Zeros", "config": {}}, "kernel_regularizer": null, "bias_regularizer": null, "activity_regularizer": null, "kernel_constraint": null, "bias_constraint": null}, "name": "conv3d_240", "inbound_nodes": [[["sequential_161", 1, 0, {}]]]}, {"class_name": "Conv3D", "config": {"name": "conv3d_295", "trainable": true, "dtype": "float32", "filters": 512, "kernel_size": [1, 1, 1], "strides": [1, 1, 1], "padding": "valid", "data_format": "channels_last", "dilation_rate": [1, 1, 1], "groups": 1, "activation": "linear", "use_bias": false, "kernel_initializer": {"class_name": "VarianceScaling", "config": {"scale": 1.0, "mode": "fan_avg", "distribution": "uniform", "seed": null}}, "bias_initializer": {"class_name": "Zeros", "config": {}}, "kernel_regularizer": null, "bias_regularizer": null, "activity_regularizer": null, "kernel_constraint": null, "bias_constraint": null}, "name": "conv3d_295", "inbound_nodes": [[["sequential_198", 1, 0, {}]]]}, {"class_name": "BatchNormalization", "config": {"name": "batch_normalization_230", "trainable": true, "dtype": "float32", "axis": [4], "momentum": 0.99, "epsilon": 0.001, "center": true, "scale": true, "beta_initializer": {"class_name": "Zeros", "config": {}}, "gamma_initializer": {"class_name": "Ones", "config": {}}, "moving_mean_initializer": {"class_name": "Zeros", "config": {}}, "moving_variance_initializer": {"class_name": "Ones", "config": {}}, "beta_regularizer": null, "gamma_regularizer": null, "beta_constraint": null, "gamma_constraint": null}, "name": "batch_normalization_230", "inbound_nodes": [[["conv3d_240", 0, 0, {}]]]}, {"class_name": "BatchNormalization", "config": {"name": "batch_normalization_283", "trainable": true, "dtype": "float32", "axis": [4], "momentum": 0.99, "epsilon": 0.001, "center": true, "scale": true, "beta_initializer": {"class_name": "Zeros", "config": {}}, "gamma_initializer": {"class_name": "Ones", "config": {}}, "moving_mean_initializer": {"class_name": "Zeros", "config": {}}, "moving_variance_initializer": {"class_name": "Ones", "config": {}}, "beta_regularizer": null, "gamma_regularizer": null, "beta_constraint": null, "gamma_constraint": null}, "name": "batch_normalization_283", "inbound_nodes": [[["conv3d_295", 0, 0, {}]]]}, {"class_name": "Add", "config": {"name": "add_69", "trainable": true, "dtype": "float32"}, "name": "add_69", "inbound_nodes": [[["batch_normalization_230", 0, 0, {}], ["re_lu_209", 0, 0, {}]]]}, {"class_name": "Add", "config": {"name": "add_85", "trainable": true, "dtype": "float32"}, "name": "add_85", "inbound_nodes": [[["batch_normalization_283", 0, 0, {}], ["re_lu_258", 0, 0, {}]]]}, {"class_name": "ReLU", "config": {"name": "re_lu_212", "trainable": true, "dtype": "float32", "max_value": null, "negative_slope": 0.0, "threshold": 0.0}, "name": "re_lu_212", "inbound_nodes": [[["add_69", 0, 0, {}]]]}, {"class_name": "ReLU", "config": {"name": "re_lu_261", "trainable": true, "dtype": "float32", "max_value": null, "negative_slope": 0.0, "threshold": 0.0}, "name": "re_lu_261", "inbound_nodes": [[["add_85", 0, 0, {}]]]}, {"class_name": "Sequential", "config": {"name": "sequential_162", "layers": [{"class_name": "InputLayer", "config": {"batch_input_shape": [null, 13, 28, 28, 64], "dtype": "float32", "sparse": false, "ragged": false, "name": "conv3d_241_input"}}, {"class_name": "Conv3D", "config": {"name": "conv3d_241", "trainable": true, "dtype": "float32", "filters": 16, "kernel_size": [3, 1, 1], "strides": [1, 1, 1], "padding": "same", "data_format": "channels_last", "dilation_rate": [1, 1, 1], "groups": 1, "activation": "linear", "use_bias": false, "kernel_initializer": {"class_name": "VarianceScaling", "config": {"scale": 1.0, "mode": "fan_avg", "distribution": "uniform", "seed": null}}, "bias_initializer": {"class_name": "Zeros", "config": {}}, "kernel_regularizer": null, "bias_regularizer": null, "activity_regularizer": null, "kernel_constraint": null, "bias_constraint": null}}, {"class_name": "BatchNormalization", "config": {"name": "batch_normalization_231", "trainable": true, "dtype": "float32", "axis": [4], "momentum": 0.99, "epsilon": 0.001, "center": true, "scale": true, "beta_initializer": {"class_name": "Zeros", "config": {}}, "gamma_initializer": {"class_name": "Ones", "config": {}}, "moving_mean_initializer": {"class_name": "Zeros", "config": {}}, "moving_variance_initializer": {"class_name": "Ones", "config": {}}, "beta_regularizer": null, "gamma_regularizer": null, "beta_constraint": null, "gamma_constraint": null}}, {"class_name": "ReLU", "config": {"name": "re_lu_213", "trainable": true, "dtype": "float32", "max_value": null, "negative_slope": 0.0, "threshold": 0.0}}]}, "name": "sequential_162", "inbound_nodes": [[["re_lu_212", 0, 0, {}]]]}, {"class_name": "Sequential", "config": {"name": "sequential_199", "layers": [{"class_name": "InputLayer", "config": {"batch_input_shape": [null, 2, 28, 28, 512], "dtype": "float32", "sparse": false, "ragged": false, "name": "conv3d_296_input"}}, {"class_name": "Conv3D", "config": {"name": "conv3d_296", "trainable": true, "dtype": "float32", "filters": 128, "kernel_size": [1, 1, 1], "strides": [1, 1, 1], "padding": "same", "data_format": "channels_last", "dilation_rate": [1, 1, 1], "groups": 1, "activation": "linear", "use_bias": false, "kernel_initializer": {"class_name": "VarianceScaling", "config": {"scale": 1.0, "mode": "fan_avg", "distribution": "uniform", "seed": null}}, "bias_initializer": {"class_name": "Zeros", "config": {}}, "kernel_regularizer": null, "bias_regularizer": null, "activity_regularizer": null, "kernel_constraint": null, "bias_constraint": null}}, {"class_name": "BatchNormalization", "config": {"name": "batch_normalization_284", "trainable": true, "dtype": "float32", "axis": [4], "momentum": 0.99, "epsilon": 0.001, "center": true, "scale": true, "beta_initializer": {"class_name": "Zeros", "config": {}}, "gamma_initializer": {"class_name": "Ones", "config": {}}, "moving_mean_initializer": {"class_name": "Zeros", "config": {}}, "moving_variance_initializer": {"class_name": "Ones", "config": {}}, "beta_regularizer": null, "gamma_regularizer": null, "beta_constraint": null, "gamma_constraint": null}}, {"class_name": "ReLU", "config": {"name": "re_lu_262", "trainable": true, "dtype": "float32", "max_value": null, "negative_slope": 0.0, "threshold": 0.0}}]}, "name": "sequential_199", "inbound_nodes": [[["re_lu_261", 0, 0, {}]]]}, {"class_name": "Sequential", "config": {"name": "sequential_163", "layers": [{"class_name": "InputLayer", "config": {"batch_input_shape": [null, 13, 28, 28, 16], "dtype": "float32", "sparse": false, "ragged": false, "name": "conv3d_242_input"}}, {"class_name": "Conv3D", "config": {"name": "conv3d_242", "trainable": true, "dtype": "float32", "filters": 16, "kernel_size": [1, 3, 3], "strides": [1, 1, 1], "padding": "same", "data_format": "channels_last", "dilation_rate": [1, 1, 1], "groups": 1, "activation": "linear", "use_bias": false, "kernel_initializer": {"class_name": "VarianceScaling", "config": {"scale": 1.0, "mode": "fan_avg", "distribution": "uniform", "seed": null}}, "bias_initializer": {"class_name": "Zeros", "config": {}}, "kernel_regularizer": null, "bias_regularizer": null, "activity_regularizer": null, "kernel_constraint": null, "bias_constraint": null}}, {"class_name": "BatchNormalization", "config": {"name": "batch_normalization_232", "trainable": true, "dtype": "float32", "axis": [4], "momentum": 0.99, "epsilon": 0.001, "center": true, "scale": true, "beta_initializer": {"class_name": "Zeros", "config": {}}, "gamma_initializer": {"class_name": "Ones", "config": {}}, "moving_mean_initializer": {"class_name": "Zeros", "config": {}}, "moving_variance_initializer": {"class_name": "Ones", "config": {}}, "beta_regularizer": null, "gamma_regularizer": null, "beta_constraint": null, "gamma_constraint": null}}, {"class_name": "ReLU", "config": {"name": "re_lu_214", "trainable": true, "dtype": "float32", "max_value": null, "negative_slope": 0.0, "threshold": 0.0}}]}, "name": "sequential_163", "inbound_nodes": [[["sequential_162", 1, 0, {}]]]}, {"class_name": "Sequential", "config": {"name": "sequential_200", "layers": [{"class_name": "InputLayer", "config": {"batch_input_shape": [null, 2, 28, 28, 128], "dtype": "float32", "sparse": false, "ragged": false, "name": "conv3d_297_input"}}, {"class_name": "Conv3D", "config": {"name": "conv3d_297", "trainable": true, "dtype": "float32", "filters": 128, "kernel_size": [1, 3, 3], "strides": [1, 1, 1], "padding": "same", "data_format": "channels_last", "dilation_rate": [1, 1, 1], "groups": 1, "activation": "linear", "use_bias": false, "kernel_initializer": {"class_name": "VarianceScaling", "config": {"scale": 1.0, "mode": "fan_avg", "distribution": "uniform", "seed": null}}, "bias_initializer": {"class_name": "Zeros", "config": {}}, "kernel_regularizer": null, "bias_regularizer": null, "activity_regularizer": null, "kernel_constraint": null, "bias_constraint": null}}, {"class_name": "BatchNormalization", "config": {"name": "batch_normalization_285", "trainable": true, "dtype": "float32", "axis": [4], "momentum": 0.99, "epsilon": 0.001, "center": true, "scale": true, "beta_initializer": {"class_name": "Zeros", "config": {}}, "gamma_initializer": {"class_name": "Ones", "config": {}}, "moving_mean_initializer": {"class_name": "Zeros", "config": {}}, "moving_variance_initializer": {"class_name": "Ones", "config": {}}, "beta_regularizer": null, "gamma_regularizer": null, "beta_constraint": null, "gamma_constraint": null}}, {"class_name": "ReLU", "config": {"name": "re_lu_263", "trainable": true, "dtype": "float32", "max_value": null, "negative_slope": 0.0, "threshold": 0.0}}]}, "name": "sequential_200", "inbound_nodes": [[["sequential_199", 1, 0, {}]]]}, {"class_name": "Conv3D", "config": {"name": "conv3d_243", "trainable": true, "dtype": "float32", "filters": 64, "kernel_size": [1, 1, 1], "strides": [1, 1, 1], "padding": "valid", "data_format": "channels_last", "dilation_rate": [1, 1, 1], "groups": 1, "activation": "linear", "use_bias": false, "kernel_initializer": {"class_name": "VarianceScaling", "config": {"scale": 1.0, "mode": "fan_avg", "distribution": "uniform", "seed": null}}, "bias_initializer": {"class_name": "Zeros", "config": {}}, "kernel_regularizer": null, "bias_regularizer": null, "activity_regularizer": null, "kernel_constraint": null, "bias_constraint": null}, "name": "conv3d_243", "inbound_nodes": [[["sequential_163", 1, 0, {}]]]}, {"class_name": "Conv3D", "config": {"name": "conv3d_298", "trainable": true, "dtype": "float32", "filters": 512, "kernel_size": [1, 1, 1], "strides": [1, 1, 1], "padding": "valid", "data_format": "channels_last", "dilation_rate": [1, 1, 1], "groups": 1, "activation": "linear", "use_bias": false, "kernel_initializer": {"class_name": "VarianceScaling", "config": {"scale": 1.0, "mode": "fan_avg", "distribution": "uniform", "seed": null}}, "bias_initializer": {"class_name": "Zeros", "config": {}}, "kernel_regularizer": null, "bias_regularizer": null, "activity_regularizer": null, "kernel_constraint": null, "bias_constraint": null}, "name": "conv3d_298", "inbound_nodes": [[["sequential_200", 1, 0, {}]]]}, {"class_name": "BatchNormalization", "config": {"name": "batch_normalization_233", "trainable": true, "dtype": "float32", "axis": [4], "momentum": 0.99, "epsilon": 0.001, "center": true, "scale": true, "beta_initializer": {"class_name": "Zeros", "config": {}}, "gamma_initializer": {"class_name": "Ones", "config": {}}, "moving_mean_initializer": {"class_name": "Zeros", "config": {}}, "moving_variance_initializer": {"class_name": "Ones", "config": {}}, "beta_regularizer": null, "gamma_regularizer": null, "beta_constraint": null, "gamma_constraint": null}, "name": "batch_normalization_233", "inbound_nodes": [[["conv3d_243", 0, 0, {}]]]}, {"class_name": "BatchNormalization", "config": {"name": "batch_normalization_286", "trainable": true, "dtype": "float32", "axis": [4], "momentum": 0.99, "epsilon": 0.001, "center": true, "scale": true, "beta_initializer": {"class_name": "Zeros", "config": {}}, "gamma_initializer": {"class_name": "Ones", "config": {}}, "moving_mean_initializer": {"class_name": "Zeros", "config": {}}, "moving_variance_initializer": {"class_name": "Ones", "config": {}}, "beta_regularizer": null, "gamma_regularizer": null, "beta_constraint": null, "gamma_constraint": null}, "name": "batch_normalization_286", "inbound_nodes": [[["conv3d_298", 0, 0, {}]]]}, {"class_name": "Add", "config": {"name": "add_70", "trainable": true, "dtype": "float32"}, "name": "add_70", "inbound_nodes": [[["batch_normalization_233", 0, 0, {}], ["re_lu_212", 0, 0, {}]]]}, {"class_name": "Add", "config": {"name": "add_86", "trainable": true, "dtype": "float32"}, "name": "add_86", "inbound_nodes": [[["batch_normalization_286", 0, 0, {}], ["re_lu_261", 0, 0, {}]]]}, {"class_name": "ReLU", "config": {"name": "re_lu_215", "trainable": true, "dtype": "float32", "max_value": null, "negative_slope": 0.0, "threshold": 0.0}, "name": "re_lu_215", "inbound_nodes": [[["add_70", 0, 0, {}]]]}, {"class_name": "ReLU", "config": {"name": "re_lu_264", "trainable": true, "dtype": "float32", "max_value": null, "negative_slope": 0.0, "threshold": 0.0}, "name": "re_lu_264", "inbound_nodes": [[["add_86", 0, 0, {}]]]}, {"class_name": "Sequential", "config": {"name": "sequential_164", "layers": [{"class_name": "InputLayer", "config": {"batch_input_shape": [null, 13, 28, 28, 64], "dtype": "float32", "sparse": false, "ragged": false, "name": "conv3d_244_input"}}, {"class_name": "Conv3D", "config": {"name": "conv3d_244", "trainable": true, "dtype": "float32", "filters": 16, "kernel_size": [3, 1, 1], "strides": [1, 1, 1], "padding": "same", "data_format": "channels_last", "dilation_rate": [1, 1, 1], "groups": 1, "activation": "linear", "use_bias": false, "kernel_initializer": {"class_name": "VarianceScaling", "config": {"scale": 1.0, "mode": "fan_avg", "distribution": "uniform", "seed": null}}, "bias_initializer": {"class_name": "Zeros", "config": {}}, "kernel_regularizer": null, "bias_regularizer": null, "activity_regularizer": null, "kernel_constraint": null, "bias_constraint": null}}, {"class_name": "BatchNormalization", "config": {"name": "batch_normalization_234", "trainable": true, "dtype": "float32", "axis": [4], "momentum": 0.99, "epsilon": 0.001, "center": true, "scale": true, "beta_initializer": {"class_name": "Zeros", "config": {}}, "gamma_initializer": {"class_name": "Ones", "config": {}}, "moving_mean_initializer": {"class_name": "Zeros", "config": {}}, "moving_variance_initializer": {"class_name": "Ones", "config": {}}, "beta_regularizer": null, "gamma_regularizer": null, "beta_constraint": null, "gamma_constraint": null}}, {"class_name": "ReLU", "config": {"name": "re_lu_216", "trainable": true, "dtype": "float32", "max_value": null, "negative_slope": 0.0, "threshold": 0.0}}]}, "name": "sequential_164", "inbound_nodes": [[["re_lu_215", 0, 0, {}]]]}, {"class_name": "Sequential", "config": {"name": "sequential_201", "layers": [{"class_name": "InputLayer", "config": {"batch_input_shape": [null, 2, 28, 28, 512], "dtype": "float32", "sparse": false, "ragged": false, "name": "conv3d_299_input"}}, {"class_name": "Conv3D", "config": {"name": "conv3d_299", "trainable": true, "dtype": "float32", "filters": 128, "kernel_size": [1, 1, 1], "strides": [1, 1, 1], "padding": "same", "data_format": "channels_last", "dilation_rate": [1, 1, 1], "groups": 1, "activation": "linear", "use_bias": false, "kernel_initializer": {"class_name": "VarianceScaling", "config": {"scale": 1.0, "mode": "fan_avg", "distribution": "uniform", "seed": null}}, "bias_initializer": {"class_name": "Zeros", "config": {}}, "kernel_regularizer": null, "bias_regularizer": null, "activity_regularizer": null, "kernel_constraint": null, "bias_constraint": null}}, {"class_name": "BatchNormalization", "config": {"name": "batch_normalization_287", "trainable": true, "dtype": "float32", "axis": [4], "momentum": 0.99, "epsilon": 0.001, "center": true, "scale": true, "beta_initializer": {"class_name": "Zeros", "config": {}}, "gamma_initializer": {"class_name": "Ones", "config": {}}, "moving_mean_initializer": {"class_name": "Zeros", "config": {}}, "moving_variance_initializer": {"class_name": "Ones", "config": {}}, "beta_regularizer": null, "gamma_regularizer": null, "beta_constraint": null, "gamma_constraint": null}}, {"class_name": "ReLU", "config": {"name": "re_lu_265", "trainable": true, "dtype": "float32", "max_value": null, "negative_slope": 0.0, "threshold": 0.0}}]}, "name": "sequential_201", "inbound_nodes": [[["re_lu_264", 0, 0, {}]]]}, {"class_name": "Sequential", "config": {"name": "sequential_165", "layers": [{"class_name": "InputLayer", "config": {"batch_input_shape": [null, 13, 28, 28, 16], "dtype": "float32", "sparse": false, "ragged": false, "name": "conv3d_245_input"}}, {"class_name": "Conv3D", "config": {"name": "conv3d_245", "trainable": true, "dtype": "float32", "filters": 16, "kernel_size": [1, 3, 3], "strides": [1, 1, 1], "padding": "same", "data_format": "channels_last", "dilation_rate": [1, 1, 1], "groups": 1, "activation": "linear", "use_bias": false, "kernel_initializer": {"class_name": "VarianceScaling", "config": {"scale": 1.0, "mode": "fan_avg", "distribution": "uniform", "seed": null}}, "bias_initializer": {"class_name": "Zeros", "config": {}}, "kernel_regularizer": null, "bias_regularizer": null, "activity_regularizer": null, "kernel_constraint": null, "bias_constraint": null}}, {"class_name": "BatchNormalization", "config": {"name": "batch_normalization_235", "trainable": true, "dtype": "float32", "axis": [4], "momentum": 0.99, "epsilon": 0.001, "center": true, "scale": true, "beta_initializer": {"class_name": "Zeros", "config": {}}, "gamma_initializer": {"class_name": "Ones", "config": {}}, "moving_mean_initializer": {"class_name": "Zeros", "config": {}}, "moving_variance_initializer": {"class_name": "Ones", "config": {}}, "beta_regularizer": null, "gamma_regularizer": null, "beta_constraint": null, "gamma_constraint": null}}, {"class_name": "ReLU", "config": {"name": "re_lu_217", "trainable": true, "dtype": "float32", "max_value": null, "negative_slope": 0.0, "threshold": 0.0}}]}, "name": "sequential_165", "inbound_nodes": [[["sequential_164", 1, 0, {}]]]}, {"class_name": "Sequential", "config": {"name": "sequential_202", "layers": [{"class_name": "InputLayer", "config": {"batch_input_shape": [null, 2, 28, 28, 128], "dtype": "float32", "sparse": false, "ragged": false, "name": "conv3d_300_input"}}, {"class_name": "Conv3D", "config": {"name": "conv3d_300", "trainable": true, "dtype": "float32", "filters": 128, "kernel_size": [1, 3, 3], "strides": [1, 1, 1], "padding": "same", "data_format": "channels_last", "dilation_rate": [1, 1, 1], "groups": 1, "activation": "linear", "use_bias": false, "kernel_initializer": {"class_name": "VarianceScaling", "config": {"scale": 1.0, "mode": "fan_avg", "distribution": "uniform", "seed": null}}, "bias_initializer": {"class_name": "Zeros", "config": {}}, "kernel_regularizer": null, "bias_regularizer": null, "activity_regularizer": null, "kernel_constraint": null, "bias_constraint": null}}, {"class_name": "BatchNormalization", "config": {"name": "batch_normalization_288", "trainable": true, "dtype": "float32", "axis": [4], "momentum": 0.99, "epsilon": 0.001, "center": true, "scale": true, "beta_initializer": {"class_name": "Zeros", "config": {}}, "gamma_initializer": {"class_name": "Ones", "config": {}}, "moving_mean_initializer": {"class_name": "Zeros", "config": {}}, "moving_variance_initializer": {"class_name": "Ones", "config": {}}, "beta_regularizer": null, "gamma_regularizer": null, "beta_constraint": null, "gamma_constraint": null}}, {"class_name": "ReLU", "config": {"name": "re_lu_266", "trainable": true, "dtype": "float32", "max_value": null, "negative_slope": 0.0, "threshold": 0.0}}]}, "name": "sequential_202", "inbound_nodes": [[["sequential_201", 1, 0, {}]]]}, {"class_name": "Conv3D", "config": {"name": "conv3d_246", "trainable": true, "dtype": "float32", "filters": 64, "kernel_size": [1, 1, 1], "strides": [1, 1, 1], "padding": "valid", "data_format": "channels_last", "dilation_rate": [1, 1, 1], "groups": 1, "activation": "linear", "use_bias": false, "kernel_initializer": {"class_name": "VarianceScaling", "config": {"scale": 1.0, "mode": "fan_avg", "distribution": "uniform", "seed": null}}, "bias_initializer": {"class_name": "Zeros", "config": {}}, "kernel_regularizer": null, "bias_regularizer": null, "activity_regularizer": null, "kernel_constraint": null, "bias_constraint": null}, "name": "conv3d_246", "inbound_nodes": [[["sequential_165", 1, 0, {}]]]}, {"class_name": "Conv3D", "config": {"name": "conv3d_301", "trainable": true, "dtype": "float32", "filters": 512, "kernel_size": [1, 1, 1], "strides": [1, 1, 1], "padding": "valid", "data_format": "channels_last", "dilation_rate": [1, 1, 1], "groups": 1, "activation": "linear", "use_bias": false, "kernel_initializer": {"class_name": "VarianceScaling", "config": {"scale": 1.0, "mode": "fan_avg", "distribution": "uniform", "seed": null}}, "bias_initializer": {"class_name": "Zeros", "config": {}}, "kernel_regularizer": null, "bias_regularizer": null, "activity_regularizer": null, "kernel_constraint": null, "bias_constraint": null}, "name": "conv3d_301", "inbound_nodes": [[["sequential_202", 1, 0, {}]]]}, {"class_name": "BatchNormalization", "config": {"name": "batch_normalization_236", "trainable": true, "dtype": "float32", "axis": [4], "momentum": 0.99, "epsilon": 0.001, "center": true, "scale": true, "beta_initializer": {"class_name": "Zeros", "config": {}}, "gamma_initializer": {"class_name": "Ones", "config": {}}, "moving_mean_initializer": {"class_name": "Zeros", "config": {}}, "moving_variance_initializer": {"class_name": "Ones", "config": {}}, "beta_regularizer": null, "gamma_regularizer": null, "beta_constraint": null, "gamma_constraint": null}, "name": "batch_normalization_236", "inbound_nodes": [[["conv3d_246", 0, 0, {}]]]}, {"class_name": "BatchNormalization", "config": {"name": "batch_normalization_289", "trainable": true, "dtype": "float32", "axis": [4], "momentum": 0.99, "epsilon": 0.001, "center": true, "scale": true, "beta_initializer": {"class_name": "Zeros", "config": {}}, "gamma_initializer": {"class_name": "Ones", "config": {}}, "moving_mean_initializer": {"class_name": "Zeros", "config": {}}, "moving_variance_initializer": {"class_name": "Ones", "config": {}}, "beta_regularizer": null, "gamma_regularizer": null, "beta_constraint": null, "gamma_constraint": null}, "name": "batch_normalization_289", "inbound_nodes": [[["conv3d_301", 0, 0, {}]]]}, {"class_name": "Add", "config": {"name": "add_71", "trainable": true, "dtype": "float32"}, "name": "add_71", "inbound_nodes": [[["batch_normalization_236", 0, 0, {}], ["re_lu_215", 0, 0, {}]]]}, {"class_name": "Add", "config": {"name": "add_87", "trainable": true, "dtype": "float32"}, "name": "add_87", "inbound_nodes": [[["batch_normalization_289", 0, 0, {}], ["re_lu_264", 0, 0, {}]]]}, {"class_name": "ReLU", "config": {"name": "re_lu_218", "trainable": true, "dtype": "float32", "max_value": null, "negative_slope": 0.0, "threshold": 0.0}, "name": "re_lu_218", "inbound_nodes": [[["add_71", 0, 0, {}]]]}, {"class_name": "ReLU", "config": {"name": "re_lu_267", "trainable": true, "dtype": "float32", "max_value": null, "negative_slope": 0.0, "threshold": 0.0}, "name": "re_lu_267", "inbound_nodes": [[["add_87", 0, 0, {}]]]}, {"class_name": "Conv3D", "config": {"name": "conv3d_247", "trainable": true, "dtype": "float32", "filters": 128, "kernel_size": [5, 1, 1], "strides": [8, 1, 1], "padding": "same", "data_format": "channels_last", "dilation_rate": [1, 1, 1], "groups": 1, "activation": "linear", "use_bias": false, "kernel_initializer": {"class_name": "VarianceScaling", "config": {"scale": 1.0, "mode": "fan_avg", "distribution": "uniform", "seed": null}}, "bias_initializer": {"class_name": "Zeros", "config": {}}, "kernel_regularizer": null, "bias_regularizer": null, "activity_regularizer": null, "kernel_constraint": null, "bias_constraint": null}, "name": "conv3d_247", "inbound_nodes": [[["re_lu_218", 0, 0, {}]]]}, {"class_name": "Concatenate", "config": {"name": "concatenate_13", "trainable": true, "dtype": "float32", "axis": -1}, "name": "concatenate_13", "inbound_nodes": [[["re_lu_267", 0, 0, {}], ["conv3d_247", 0, 0, {}]]]}, {"class_name": "Sequential", "config": {"name": "sequential_167", "layers": [{"class_name": "InputLayer", "config": {"batch_input_shape": [null, 13, 28, 28, 64], "dtype": "float32", "sparse": false, "ragged": false, "name": "conv3d_249_input"}}, {"class_name": "Conv3D", "config": {"name": "conv3d_249", "trainable": true, "dtype": "float32", "filters": 32, "kernel_size": [3, 1, 1], "strides": [1, 1, 1], "padding": "same", "data_format": "channels_last", "dilation_rate": [1, 1, 1], "groups": 1, "activation": "linear", "use_bias": false, "kernel_initializer": {"class_name": "VarianceScaling", "config": {"scale": 1.0, "mode": "fan_avg", "distribution": "uniform", "seed": null}}, "bias_initializer": {"class_name": "Zeros", "config": {}}, "kernel_regularizer": null, "bias_regularizer": null, "activity_regularizer": null, "kernel_constraint": null, "bias_constraint": null}}, {"class_name": "BatchNormalization", "config": {"name": "batch_normalization_238", "trainable": true, "dtype": "float32", "axis": [4], "momentum": 0.99, "epsilon": 0.001, "center": true, "scale": true, "beta_initializer": {"class_name": "Zeros", "config": {}}, "gamma_initializer": {"class_name": "Ones", "config": {}}, "moving_mean_initializer": {"class_name": "Zeros", "config": {}}, "moving_variance_initializer": {"class_name": "Ones", "config": {}}, "beta_regularizer": null, "gamma_regularizer": null, "beta_constraint": null, "gamma_constraint": null}}, {"class_name": "ReLU", "config": {"name": "re_lu_219", "trainable": true, "dtype": "float32", "max_value": null, "negative_slope": 0.0, "threshold": 0.0}}]}, "name": "sequential_167", "inbound_nodes": [[["re_lu_218", 0, 0, {}]]]}, {"class_name": "Sequential", "config": {"name": "sequential_204", "layers": [{"class_name": "InputLayer", "config": {"batch_input_shape": [null, 2, 28, 28, 640], "dtype": "float32", "sparse": false, "ragged": false, "name": "conv3d_303_input"}}, {"class_name": "Conv3D", "config": {"name": "conv3d_303", "trainable": true, "dtype": "float32", "filters": 256, "kernel_size": [1, 1, 1], "strides": [1, 1, 1], "padding": "same", "data_format": "channels_last", "dilation_rate": [1, 1, 1], "groups": 1, "activation": "linear", "use_bias": false, "kernel_initializer": {"class_name": "VarianceScaling", "config": {"scale": 1.0, "mode": "fan_avg", "distribution": "uniform", "seed": null}}, "bias_initializer": {"class_name": "Zeros", "config": {}}, "kernel_regularizer": null, "bias_regularizer": null, "activity_regularizer": null, "kernel_constraint": null, "bias_constraint": null}}, {"class_name": "BatchNormalization", "config": {"name": "batch_normalization_291", "trainable": true, "dtype": "float32", "axis": [4], "momentum": 0.99, "epsilon": 0.001, "center": true, "scale": true, "beta_initializer": {"class_name": "Zeros", "config": {}}, "gamma_initializer": {"class_name": "Ones", "config": {}}, "moving_mean_initializer": {"class_name": "Zeros", "config": {}}, "moving_variance_initializer": {"class_name": "Ones", "config": {}}, "beta_regularizer": null, "gamma_regularizer": null, "beta_constraint": null, "gamma_constraint": null}}, {"class_name": "ReLU", "config": {"name": "re_lu_268", "trainable": true, "dtype": "float32", "max_value": null, "negative_slope": 0.0, "threshold": 0.0}}]}, "name": "sequential_204", "inbound_nodes": [[["concatenate_13", 0, 0, {}]]]}, {"class_name": "Sequential", "config": {"name": "sequential_168", "layers": [{"class_name": "InputLayer", "config": {"batch_input_shape": [null, 13, 28, 28, 32], "dtype": "float32", "sparse": false, "ragged": false, "name": "conv3d_250_input"}}, {"class_name": "Conv3D", "config": {"name": "conv3d_250", "trainable": true, "dtype": "float32", "filters": 32, "kernel_size": [1, 3, 3], "strides": [1, 2, 2], "padding": "same", "data_format": "channels_last", "dilation_rate": [1, 1, 1], "groups": 1, "activation": "linear", "use_bias": false, "kernel_initializer": {"class_name": "VarianceScaling", "config": {"scale": 1.0, "mode": "fan_avg", "distribution": "uniform", "seed": null}}, "bias_initializer": {"class_name": "Zeros", "config": {}}, "kernel_regularizer": null, "bias_regularizer": null, "activity_regularizer": null, "kernel_constraint": null, "bias_constraint": null}}, {"class_name": "BatchNormalization", "config": {"name": "batch_normalization_239", "trainable": true, "dtype": "float32", "axis": [4], "momentum": 0.99, "epsilon": 0.001, "center": true, "scale": true, "beta_initializer": {"class_name": "Zeros", "config": {}}, "gamma_initializer": {"class_name": "Ones", "config": {}}, "moving_mean_initializer": {"class_name": "Zeros", "config": {}}, "moving_variance_initializer": {"class_name": "Ones", "config": {}}, "beta_regularizer": null, "gamma_regularizer": null, "beta_constraint": null, "gamma_constraint": null}}, {"class_name": "ReLU", "config": {"name": "re_lu_220", "trainable": true, "dtype": "float32", "max_value": null, "negative_slope": 0.0, "threshold": 0.0}}]}, "name": "sequential_168", "inbound_nodes": [[["sequential_167", 1, 0, {}]]]}, {"class_name": "Sequential", "config": {"name": "sequential_205", "layers": [{"class_name": "InputLayer", "config": {"batch_input_shape": [null, 2, 28, 28, 256], "dtype": "float32", "sparse": false, "ragged": false, "name": "conv3d_304_input"}}, {"class_name": "Conv3D", "config": {"name": "conv3d_304", "trainable": true, "dtype": "float32", "filters": 256, "kernel_size": [1, 3, 3], "strides": [1, 2, 2], "padding": "same", "data_format": "channels_last", "dilation_rate": [1, 1, 1], "groups": 1, "activation": "linear", "use_bias": false, "kernel_initializer": {"class_name": "VarianceScaling", "config": {"scale": 1.0, "mode": "fan_avg", "distribution": "uniform", "seed": null}}, "bias_initializer": {"class_name": "Zeros", "config": {}}, "kernel_regularizer": null, "bias_regularizer": null, "activity_regularizer": null, "kernel_constraint": null, "bias_constraint": null}}, {"class_name": "BatchNormalization", "config": {"name": "batch_normalization_292", "trainable": true, "dtype": "float32", "axis": [4], "momentum": 0.99, "epsilon": 0.001, "center": true, "scale": true, "beta_initializer": {"class_name": "Zeros", "config": {}}, "gamma_initializer": {"class_name": "Ones", "config": {}}, "moving_mean_initializer": {"class_name": "Zeros", "config": {}}, "moving_variance_initializer": {"class_name": "Ones", "config": {}}, "beta_regularizer": null, "gamma_regularizer": null, "beta_constraint": null, "gamma_constraint": null}}, {"class_name": "ReLU", "config": {"name": "re_lu_269", "trainable": true, "dtype": "float32", "max_value": null, "negative_slope": 0.0, "threshold": 0.0}}]}, "name": "sequential_205", "inbound_nodes": [[["sequential_204", 1, 0, {}]]]}, {"class_name": "Conv3D", "config": {"name": "conv3d_251", "trainable": true, "dtype": "float32", "filters": 128, "kernel_size": [1, 1, 1], "strides": [1, 1, 1], "padding": "valid", "data_format": "channels_last", "dilation_rate": [1, 1, 1], "groups": 1, "activation": "linear", "use_bias": false, "kernel_initializer": {"class_name": "VarianceScaling", "config": {"scale": 1.0, "mode": "fan_avg", "distribution": "uniform", "seed": null}}, "bias_initializer": {"class_name": "Zeros", "config": {}}, "kernel_regularizer": null, "bias_regularizer": null, "activity_regularizer": null, "kernel_constraint": null, "bias_constraint": null}, "name": "conv3d_251", "inbound_nodes": [[["sequential_168", 1, 0, {}]]]}, {"class_name": "Conv3D", "config": {"name": "conv3d_305", "trainable": true, "dtype": "float32", "filters": 1024, "kernel_size": [1, 1, 1], "strides": [1, 1, 1], "padding": "valid", "data_format": "channels_last", "dilation_rate": [1, 1, 1], "groups": 1, "activation": "linear", "use_bias": false, "kernel_initializer": {"class_name": "VarianceScaling", "config": {"scale": 1.0, "mode": "fan_avg", "distribution": "uniform", "seed": null}}, "bias_initializer": {"class_name": "Zeros", "config": {}}, "kernel_regularizer": null, "bias_regularizer": null, "activity_regularizer": null, "kernel_constraint": null, "bias_constraint": null}, "name": "conv3d_305", "inbound_nodes": [[["sequential_205", 1, 0, {}]]]}, {"class_name": "BatchNormalization", "config": {"name": "batch_normalization_240", "trainable": true, "dtype": "float32", "axis": [4], "momentum": 0.99, "epsilon": 0.001, "center": true, "scale": true, "beta_initializer": {"class_name": "Zeros", "config": {}}, "gamma_initializer": {"class_name": "Ones", "config": {}}, "moving_mean_initializer": {"class_name": "Zeros", "config": {}}, "moving_variance_initializer": {"class_name": "Ones", "config": {}}, "beta_regularizer": null, "gamma_regularizer": null, "beta_constraint": null, "gamma_constraint": null}, "name": "batch_normalization_240", "inbound_nodes": [[["conv3d_251", 0, 0, {}]]]}, {"class_name": "Sequential", "config": {"name": "sequential_166", "layers": [{"class_name": "InputLayer", "config": {"batch_input_shape": [null, 13, 28, 28, 64], "dtype": "float32", "sparse": false, "ragged": false, "name": "conv3d_248_input"}}, {"class_name": "Conv3D", "config": {"name": "conv3d_248", "trainable": true, "dtype": "float32", "filters": 128, "kernel_size": [1, 1, 1], "strides": [1, 2, 2], "padding": "valid", "data_format": "channels_last", "dilation_rate": [1, 1, 1], "groups": 1, "activation": "linear", "use_bias": false, "kernel_initializer": {"class_name": "VarianceScaling", "config": {"scale": 1.0, "mode": "fan_avg", "distribution": "uniform", "seed": null}}, "bias_initializer": {"class_name": "Zeros", "config": {}}, "kernel_regularizer": null, "bias_regularizer": null, "activity_regularizer": null, "kernel_constraint": null, "bias_constraint": null}}, {"class_name": "BatchNormalization", "config": {"name": "batch_normalization_237", "trainable": true, "dtype": "float32", "axis": [4], "momentum": 0.99, "epsilon": 0.001, "center": true, "scale": true, "beta_initializer": {"class_name": "Zeros", "config": {}}, "gamma_initializer": {"class_name": "Ones", "config": {}}, "moving_mean_initializer": {"class_name": "Zeros", "config": {}}, "moving_variance_initializer": {"class_name": "Ones", "config": {}}, "beta_regularizer": null, "gamma_regularizer": null, "beta_constraint": null, "gamma_constraint": null}}]}, "name": "sequential_166", "inbound_nodes": [[["re_lu_218", 0, 0, {}]]]}, {"class_name": "BatchNormalization", "config": {"name": "batch_normalization_293", "trainable": true, "dtype": "float32", "axis": [4], "momentum": 0.99, "epsilon": 0.001, "center": true, "scale": true, "beta_initializer": {"class_name": "Zeros", "config": {}}, "gamma_initializer": {"class_name": "Ones", "config": {}}, "moving_mean_initializer": {"class_name": "Zeros", "config": {}}, "moving_variance_initializer": {"class_name": "Ones", "config": {}}, "beta_regularizer": null, "gamma_regularizer": null, "beta_constraint": null, "gamma_constraint": null}, "name": "batch_normalization_293", "inbound_nodes": [[["conv3d_305", 0, 0, {}]]]}, {"class_name": "Sequential", "config": {"name": "sequential_203", "layers": [{"class_name": "InputLayer", "config": {"batch_input_shape": [null, 2, 28, 28, 640], "dtype": "float32", "sparse": false, "ragged": false, "name": "conv3d_302_input"}}, {"class_name": "Conv3D", "config": {"name": "conv3d_302", "trainable": true, "dtype": "float32", "filters": 1024, "kernel_size": [1, 1, 1], "strides": [1, 2, 2], "padding": "valid", "data_format": "channels_last", "dilation_rate": [1, 1, 1], "groups": 1, "activation": "linear", "use_bias": false, "kernel_initializer": {"class_name": "VarianceScaling", "config": {"scale": 1.0, "mode": "fan_avg", "distribution": "uniform", "seed": null}}, "bias_initializer": {"class_name": "Zeros", "config": {}}, "kernel_regularizer": null, "bias_regularizer": null, "activity_regularizer": null, "kernel_constraint": null, "bias_constraint": null}}, {"class_name": "BatchNormalization", "config": {"name": "batch_normalization_290", "trainable": true, "dtype": "float32", "axis": [4], "momentum": 0.99, "epsilon": 0.001, "center": true, "scale": true, "beta_initializer": {"class_name": "Zeros", "config": {}}, "gamma_initializer": {"class_name": "Ones", "config": {}}, "moving_mean_initializer": {"class_name": "Zeros", "config": {}}, "moving_variance_initializer": {"class_name": "Ones", "config": {}}, "beta_regularizer": null, "gamma_regularizer": null, "beta_constraint": null, "gamma_constraint": null}}]}, "name": "sequential_203", "inbound_nodes": [[["concatenate_13", 0, 0, {}]]]}, {"class_name": "Add", "config": {"name": "add_72", "trainable": true, "dtype": "float32"}, "name": "add_72", "inbound_nodes": [[["batch_normalization_240", 0, 0, {}], ["sequential_166", 1, 0, {}]]]}, {"class_name": "Add", "config": {"name": "add_88", "trainable": true, "dtype": "float32"}, "name": "add_88", "inbound_nodes": [[["batch_normalization_293", 0, 0, {}], ["sequential_203", 1, 0, {}]]]}, {"class_name": "ReLU", "config": {"name": "re_lu_221", "trainable": true, "dtype": "float32", "max_value": null, "negative_slope": 0.0, "threshold": 0.0}, "name": "re_lu_221", "inbound_nodes": [[["add_72", 0, 0, {}]]]}, {"class_name": "ReLU", "config": {"name": "re_lu_270", "trainable": true, "dtype": "float32", "max_value": null, "negative_slope": 0.0, "threshold": 0.0}, "name": "re_lu_270", "inbound_nodes": [[["add_88", 0, 0, {}]]]}, {"class_name": "Sequential", "config": {"name": "sequential_169", "layers": [{"class_name": "InputLayer", "config": {"batch_input_shape": [null, 13, 14, 14, 128], "dtype": "float32", "sparse": false, "ragged": false, "name": "conv3d_252_input"}}, {"class_name": "Conv3D", "config": {"name": "conv3d_252", "trainable": true, "dtype": "float32", "filters": 32, "kernel_size": [3, 1, 1], "strides": [1, 1, 1], "padding": "same", "data_format": "channels_last", "dilation_rate": [1, 1, 1], "groups": 1, "activation": "linear", "use_bias": false, "kernel_initializer": {"class_name": "VarianceScaling", "config": {"scale": 1.0, "mode": "fan_avg", "distribution": "uniform", "seed": null}}, "bias_initializer": {"class_name": "Zeros", "config": {}}, "kernel_regularizer": null, "bias_regularizer": null, "activity_regularizer": null, "kernel_constraint": null, "bias_constraint": null}}, {"class_name": "BatchNormalization", "config": {"name": "batch_normalization_241", "trainable": true, "dtype": "float32", "axis": [4], "momentum": 0.99, "epsilon": 0.001, "center": true, "scale": true, "beta_initializer": {"class_name": "Zeros", "config": {}}, "gamma_initializer": {"class_name": "Ones", "config": {}}, "moving_mean_initializer": {"class_name": "Zeros", "config": {}}, "moving_variance_initializer": {"class_name": "Ones", "config": {}}, "beta_regularizer": null, "gamma_regularizer": null, "beta_constraint": null, "gamma_constraint": null}}, {"class_name": "ReLU", "config": {"name": "re_lu_222", "trainable": true, "dtype": "float32", "max_value": null, "negative_slope": 0.0, "threshold": 0.0}}]}, "name": "sequential_169", "inbound_nodes": [[["re_lu_221", 0, 0, {}]]]}, {"class_name": "Sequential", "config": {"name": "sequential_206", "layers": [{"class_name": "InputLayer", "config": {"batch_input_shape": [null, 2, 14, 14, 1024], "dtype": "float32", "sparse": false, "ragged": false, "name": "conv3d_306_input"}}, {"class_name": "Conv3D", "config": {"name": "conv3d_306", "trainable": true, "dtype": "float32", "filters": 256, "kernel_size": [1, 1, 1], "strides": [1, 1, 1], "padding": "same", "data_format": "channels_last", "dilation_rate": [1, 1, 1], "groups": 1, "activation": "linear", "use_bias": false, "kernel_initializer": {"class_name": "VarianceScaling", "config": {"scale": 1.0, "mode": "fan_avg", "distribution": "uniform", "seed": null}}, "bias_initializer": {"class_name": "Zeros", "config": {}}, "kernel_regularizer": null, "bias_regularizer": null, "activity_regularizer": null, "kernel_constraint": null, "bias_constraint": null}}, {"class_name": "BatchNormalization", "config": {"name": "batch_normalization_294", "trainable": true, "dtype": "float32", "axis": [4], "momentum": 0.99, "epsilon": 0.001, "center": true, "scale": true, "beta_initializer": {"class_name": "Zeros", "config": {}}, "gamma_initializer": {"class_name": "Ones", "config": {}}, "moving_mean_initializer": {"class_name": "Zeros", "config": {}}, "moving_variance_initializer": {"class_name": "Ones", "config": {}}, "beta_regularizer": null, "gamma_regularizer": null, "beta_constraint": null, "gamma_constraint": null}}, {"class_name": "ReLU", "config": {"name": "re_lu_271", "trainable": true, "dtype": "float32", "max_value": null, "negative_slope": 0.0, "threshold": 0.0}}]}, "name": "sequential_206", "inbound_nodes": [[["re_lu_270", 0, 0, {}]]]}, {"class_name": "Sequential", "config": {"name": "sequential_170", "layers": [{"class_name": "InputLayer", "config": {"batch_input_shape": [null, 13, 14, 14, 32], "dtype": "float32", "sparse": false, "ragged": false, "name": "conv3d_253_input"}}, {"class_name": "Conv3D", "config": {"name": "conv3d_253", "trainable": true, "dtype": "float32", "filters": 32, "kernel_size": [1, 3, 3], "strides": [1, 1, 1], "padding": "same", "data_format": "channels_last", "dilation_rate": [1, 1, 1], "groups": 1, "activation": "linear", "use_bias": false, "kernel_initializer": {"class_name": "VarianceScaling", "config": {"scale": 1.0, "mode": "fan_avg", "distribution": "uniform", "seed": null}}, "bias_initializer": {"class_name": "Zeros", "config": {}}, "kernel_regularizer": null, "bias_regularizer": null, "activity_regularizer": null, "kernel_constraint": null, "bias_constraint": null}}, {"class_name": "BatchNormalization", "config": {"name": "batch_normalization_242", "trainable": true, "dtype": "float32", "axis": [4], "momentum": 0.99, "epsilon": 0.001, "center": true, "scale": true, "beta_initializer": {"class_name": "Zeros", "config": {}}, "gamma_initializer": {"class_name": "Ones", "config": {}}, "moving_mean_initializer": {"class_name": "Zeros", "config": {}}, "moving_variance_initializer": {"class_name": "Ones", "config": {}}, "beta_regularizer": null, "gamma_regularizer": null, "beta_constraint": null, "gamma_constraint": null}}, {"class_name": "ReLU", "config": {"name": "re_lu_223", "trainable": true, "dtype": "float32", "max_value": null, "negative_slope": 0.0, "threshold": 0.0}}]}, "name": "sequential_170", "inbound_nodes": [[["sequential_169", 1, 0, {}]]]}, {"class_name": "Sequential", "config": {"name": "sequential_207", "layers": [{"class_name": "InputLayer", "config": {"batch_input_shape": [null, 2, 14, 14, 256], "dtype": "float32", "sparse": false, "ragged": false, "name": "conv3d_307_input"}}, {"class_name": "Conv3D", "config": {"name": "conv3d_307", "trainable": true, "dtype": "float32", "filters": 256, "kernel_size": [1, 3, 3], "strides": [1, 1, 1], "padding": "same", "data_format": "channels_last", "dilation_rate": [1, 1, 1], "groups": 1, "activation": "linear", "use_bias": false, "kernel_initializer": {"class_name": "VarianceScaling", "config": {"scale": 1.0, "mode": "fan_avg", "distribution": "uniform", "seed": null}}, "bias_initializer": {"class_name": "Zeros", "config": {}}, "kernel_regularizer": null, "bias_regularizer": null, "activity_regularizer": null, "kernel_constraint": null, "bias_constraint": null}}, {"class_name": "BatchNormalization", "config": {"name": "batch_normalization_295", "trainable": true, "dtype": "float32", "axis": [4], "momentum": 0.99, "epsilon": 0.001, "center": true, "scale": true, "beta_initializer": {"class_name": "Zeros", "config": {}}, "gamma_initializer": {"class_name": "Ones", "config": {}}, "moving_mean_initializer": {"class_name": "Zeros", "config": {}}, "moving_variance_initializer": {"class_name": "Ones", "config": {}}, "beta_regularizer": null, "gamma_regularizer": null, "beta_constraint": null, "gamma_constraint": null}}, {"class_name": "ReLU", "config": {"name": "re_lu_272", "trainable": true, "dtype": "float32", "max_value": null, "negative_slope": 0.0, "threshold": 0.0}}]}, "name": "sequential_207", "inbound_nodes": [[["sequential_206", 1, 0, {}]]]}, {"class_name": "Conv3D", "config": {"name": "conv3d_254", "trainable": true, "dtype": "float32", "filters": 128, "kernel_size": [1, 1, 1], "strides": [1, 1, 1], "padding": "valid", "data_format": "channels_last", "dilation_rate": [1, 1, 1], "groups": 1, "activation": "linear", "use_bias": false, "kernel_initializer": {"class_name": "VarianceScaling", "config": {"scale": 1.0, "mode": "fan_avg", "distribution": "uniform", "seed": null}}, "bias_initializer": {"class_name": "Zeros", "config": {}}, "kernel_regularizer": null, "bias_regularizer": null, "activity_regularizer": null, "kernel_constraint": null, "bias_constraint": null}, "name": "conv3d_254", "inbound_nodes": [[["sequential_170", 1, 0, {}]]]}, {"class_name": "Conv3D", "config": {"name": "conv3d_308", "trainable": true, "dtype": "float32", "filters": 1024, "kernel_size": [1, 1, 1], "strides": [1, 1, 1], "padding": "valid", "data_format": "channels_last", "dilation_rate": [1, 1, 1], "groups": 1, "activation": "linear", "use_bias": false, "kernel_initializer": {"class_name": "VarianceScaling", "config": {"scale": 1.0, "mode": "fan_avg", "distribution": "uniform", "seed": null}}, "bias_initializer": {"class_name": "Zeros", "config": {}}, "kernel_regularizer": null, "bias_regularizer": null, "activity_regularizer": null, "kernel_constraint": null, "bias_constraint": null}, "name": "conv3d_308", "inbound_nodes": [[["sequential_207", 1, 0, {}]]]}, {"class_name": "BatchNormalization", "config": {"name": "batch_normalization_243", "trainable": true, "dtype": "float32", "axis": [4], "momentum": 0.99, "epsilon": 0.001, "center": true, "scale": true, "beta_initializer": {"class_name": "Zeros", "config": {}}, "gamma_initializer": {"class_name": "Ones", "config": {}}, "moving_mean_initializer": {"class_name": "Zeros", "config": {}}, "moving_variance_initializer": {"class_name": "Ones", "config": {}}, "beta_regularizer": null, "gamma_regularizer": null, "beta_constraint": null, "gamma_constraint": null}, "name": "batch_normalization_243", "inbound_nodes": [[["conv3d_254", 0, 0, {}]]]}, {"class_name": "BatchNormalization", "config": {"name": "batch_normalization_296", "trainable": true, "dtype": "float32", "axis": [4], "momentum": 0.99, "epsilon": 0.001, "center": true, "scale": true, "beta_initializer": {"class_name": "Zeros", "config": {}}, "gamma_initializer": {"class_name": "Ones", "config": {}}, "moving_mean_initializer": {"class_name": "Zeros", "config": {}}, "moving_variance_initializer": {"class_name": "Ones", "config": {}}, "beta_regularizer": null, "gamma_regularizer": null, "beta_constraint": null, "gamma_constraint": null}, "name": "batch_normalization_296", "inbound_nodes": [[["conv3d_308", 0, 0, {}]]]}, {"class_name": "Add", "config": {"name": "add_73", "trainable": true, "dtype": "float32"}, "name": "add_73", "inbound_nodes": [[["batch_normalization_243", 0, 0, {}], ["re_lu_221", 0, 0, {}]]]}, {"class_name": "Add", "config": {"name": "add_89", "trainable": true, "dtype": "float32"}, "name": "add_89", "inbound_nodes": [[["batch_normalization_296", 0, 0, {}], ["re_lu_270", 0, 0, {}]]]}, {"class_name": "ReLU", "config": {"name": "re_lu_224", "trainable": true, "dtype": "float32", "max_value": null, "negative_slope": 0.0, "threshold": 0.0}, "name": "re_lu_224", "inbound_nodes": [[["add_73", 0, 0, {}]]]}, {"class_name": "ReLU", "config": {"name": "re_lu_273", "trainable": true, "dtype": "float32", "max_value": null, "negative_slope": 0.0, "threshold": 0.0}, "name": "re_lu_273", "inbound_nodes": [[["add_89", 0, 0, {}]]]}, {"class_name": "Sequential", "config": {"name": "sequential_171", "layers": [{"class_name": "InputLayer", "config": {"batch_input_shape": [null, 13, 14, 14, 128], "dtype": "float32", "sparse": false, "ragged": false, "name": "conv3d_255_input"}}, {"class_name": "Conv3D", "config": {"name": "conv3d_255", "trainable": true, "dtype": "float32", "filters": 32, "kernel_size": [3, 1, 1], "strides": [1, 1, 1], "padding": "same", "data_format": "channels_last", "dilation_rate": [1, 1, 1], "groups": 1, "activation": "linear", "use_bias": false, "kernel_initializer": {"class_name": "VarianceScaling", "config": {"scale": 1.0, "mode": "fan_avg", "distribution": "uniform", "seed": null}}, "bias_initializer": {"class_name": "Zeros", "config": {}}, "kernel_regularizer": null, "bias_regularizer": null, "activity_regularizer": null, "kernel_constraint": null, "bias_constraint": null}}, {"class_name": "BatchNormalization", "config": {"name": "batch_normalization_244", "trainable": true, "dtype": "float32", "axis": [4], "momentum": 0.99, "epsilon": 0.001, "center": true, "scale": true, "beta_initializer": {"class_name": "Zeros", "config": {}}, "gamma_initializer": {"class_name": "Ones", "config": {}}, "moving_mean_initializer": {"class_name": "Zeros", "config": {}}, "moving_variance_initializer": {"class_name": "Ones", "config": {}}, "beta_regularizer": null, "gamma_regularizer": null, "beta_constraint": null, "gamma_constraint": null}}, {"class_name": "ReLU", "config": {"name": "re_lu_225", "trainable": true, "dtype": "float32", "max_value": null, "negative_slope": 0.0, "threshold": 0.0}}]}, "name": "sequential_171", "inbound_nodes": [[["re_lu_224", 0, 0, {}]]]}, {"class_name": "Sequential", "config": {"name": "sequential_208", "layers": [{"class_name": "InputLayer", "config": {"batch_input_shape": [null, 2, 14, 14, 1024], "dtype": "float32", "sparse": false, "ragged": false, "name": "conv3d_309_input"}}, {"class_name": "Conv3D", "config": {"name": "conv3d_309", "trainable": true, "dtype": "float32", "filters": 256, "kernel_size": [1, 1, 1], "strides": [1, 1, 1], "padding": "same", "data_format": "channels_last", "dilation_rate": [1, 1, 1], "groups": 1, "activation": "linear", "use_bias": false, "kernel_initializer": {"class_name": "VarianceScaling", "config": {"scale": 1.0, "mode": "fan_avg", "distribution": "uniform", "seed": null}}, "bias_initializer": {"class_name": "Zeros", "config": {}}, "kernel_regularizer": null, "bias_regularizer": null, "activity_regularizer": null, "kernel_constraint": null, "bias_constraint": null}}, {"class_name": "BatchNormalization", "config": {"name": "batch_normalization_297", "trainable": true, "dtype": "float32", "axis": [4], "momentum": 0.99, "epsilon": 0.001, "center": true, "scale": true, "beta_initializer": {"class_name": "Zeros", "config": {}}, "gamma_initializer": {"class_name": "Ones", "config": {}}, "moving_mean_initializer": {"class_name": "Zeros", "config": {}}, "moving_variance_initializer": {"class_name": "Ones", "config": {}}, "beta_regularizer": null, "gamma_regularizer": null, "beta_constraint": null, "gamma_constraint": null}}, {"class_name": "ReLU", "config": {"name": "re_lu_274", "trainable": true, "dtype": "float32", "max_value": null, "negative_slope": 0.0, "threshold": 0.0}}]}, "name": "sequential_208", "inbound_nodes": [[["re_lu_273", 0, 0, {}]]]}, {"class_name": "Sequential", "config": {"name": "sequential_172", "layers": [{"class_name": "InputLayer", "config": {"batch_input_shape": [null, 13, 14, 14, 32], "dtype": "float32", "sparse": false, "ragged": false, "name": "conv3d_256_input"}}, {"class_name": "Conv3D", "config": {"name": "conv3d_256", "trainable": true, "dtype": "float32", "filters": 32, "kernel_size": [1, 3, 3], "strides": [1, 1, 1], "padding": "same", "data_format": "channels_last", "dilation_rate": [1, 1, 1], "groups": 1, "activation": "linear", "use_bias": false, "kernel_initializer": {"class_name": "VarianceScaling", "config": {"scale": 1.0, "mode": "fan_avg", "distribution": "uniform", "seed": null}}, "bias_initializer": {"class_name": "Zeros", "config": {}}, "kernel_regularizer": null, "bias_regularizer": null, "activity_regularizer": null, "kernel_constraint": null, "bias_constraint": null}}, {"class_name": "BatchNormalization", "config": {"name": "batch_normalization_245", "trainable": true, "dtype": "float32", "axis": [4], "momentum": 0.99, "epsilon": 0.001, "center": true, "scale": true, "beta_initializer": {"class_name": "Zeros", "config": {}}, "gamma_initializer": {"class_name": "Ones", "config": {}}, "moving_mean_initializer": {"class_name": "Zeros", "config": {}}, "moving_variance_initializer": {"class_name": "Ones", "config": {}}, "beta_regularizer": null, "gamma_regularizer": null, "beta_constraint": null, "gamma_constraint": null}}, {"class_name": "ReLU", "config": {"name": "re_lu_226", "trainable": true, "dtype": "float32", "max_value": null, "negative_slope": 0.0, "threshold": 0.0}}]}, "name": "sequential_172", "inbound_nodes": [[["sequential_171", 1, 0, {}]]]}, {"class_name": "Sequential", "config": {"name": "sequential_209", "layers": [{"class_name": "InputLayer", "config": {"batch_input_shape": [null, 2, 14, 14, 256], "dtype": "float32", "sparse": false, "ragged": false, "name": "conv3d_310_input"}}, {"class_name": "Conv3D", "config": {"name": "conv3d_310", "trainable": true, "dtype": "float32", "filters": 256, "kernel_size": [1, 3, 3], "strides": [1, 1, 1], "padding": "same", "data_format": "channels_last", "dilation_rate": [1, 1, 1], "groups": 1, "activation": "linear", "use_bias": false, "kernel_initializer": {"class_name": "VarianceScaling", "config": {"scale": 1.0, "mode": "fan_avg", "distribution": "uniform", "seed": null}}, "bias_initializer": {"class_name": "Zeros", "config": {}}, "kernel_regularizer": null, "bias_regularizer": null, "activity_regularizer": null, "kernel_constraint": null, "bias_constraint": null}}, {"class_name": "BatchNormalization", "config": {"name": "batch_normalization_298", "trainable": true, "dtype": "float32", "axis": [4], "momentum": 0.99, "epsilon": 0.001, "center": true, "scale": true, "beta_initializer": {"class_name": "Zeros", "config": {}}, "gamma_initializer": {"class_name": "Ones", "config": {}}, "moving_mean_initializer": {"class_name": "Zeros", "config": {}}, "moving_variance_initializer": {"class_name": "Ones", "config": {}}, "beta_regularizer": null, "gamma_regularizer": null, "beta_constraint": null, "gamma_constraint": null}}, {"class_name": "ReLU", "config": {"name": "re_lu_275", "trainable": true, "dtype": "float32", "max_value": null, "negative_slope": 0.0, "threshold": 0.0}}]}, "name": "sequential_209", "inbound_nodes": [[["sequential_208", 1, 0, {}]]]}, {"class_name": "Conv3D", "config": {"name": "conv3d_257", "trainable": true, "dtype": "float32", "filters": 128, "kernel_size": [1, 1, 1], "strides": [1, 1, 1], "padding": "valid", "data_format": "channels_last", "dilation_rate": [1, 1, 1], "groups": 1, "activation": "linear", "use_bias": false, "kernel_initializer": {"class_name": "VarianceScaling", "config": {"scale": 1.0, "mode": "fan_avg", "distribution": "uniform", "seed": null}}, "bias_initializer": {"class_name": "Zeros", "config": {}}, "kernel_regularizer": null, "bias_regularizer": null, "activity_regularizer": null, "kernel_constraint": null, "bias_constraint": null}, "name": "conv3d_257", "inbound_nodes": [[["sequential_172", 1, 0, {}]]]}, {"class_name": "Conv3D", "config": {"name": "conv3d_311", "trainable": true, "dtype": "float32", "filters": 1024, "kernel_size": [1, 1, 1], "strides": [1, 1, 1], "padding": "valid", "data_format": "channels_last", "dilation_rate": [1, 1, 1], "groups": 1, "activation": "linear", "use_bias": false, "kernel_initializer": {"class_name": "VarianceScaling", "config": {"scale": 1.0, "mode": "fan_avg", "distribution": "uniform", "seed": null}}, "bias_initializer": {"class_name": "Zeros", "config": {}}, "kernel_regularizer": null, "bias_regularizer": null, "activity_regularizer": null, "kernel_constraint": null, "bias_constraint": null}, "name": "conv3d_311", "inbound_nodes": [[["sequential_209", 1, 0, {}]]]}, {"class_name": "BatchNormalization", "config": {"name": "batch_normalization_246", "trainable": true, "dtype": "float32", "axis": [4], "momentum": 0.99, "epsilon": 0.001, "center": true, "scale": true, "beta_initializer": {"class_name": "Zeros", "config": {}}, "gamma_initializer": {"class_name": "Ones", "config": {}}, "moving_mean_initializer": {"class_name": "Zeros", "config": {}}, "moving_variance_initializer": {"class_name": "Ones", "config": {}}, "beta_regularizer": null, "gamma_regularizer": null, "beta_constraint": null, "gamma_constraint": null}, "name": "batch_normalization_246", "inbound_nodes": [[["conv3d_257", 0, 0, {}]]]}, {"class_name": "BatchNormalization", "config": {"name": "batch_normalization_299", "trainable": true, "dtype": "float32", "axis": [4], "momentum": 0.99, "epsilon": 0.001, "center": true, "scale": true, "beta_initializer": {"class_name": "Zeros", "config": {}}, "gamma_initializer": {"class_name": "Ones", "config": {}}, "moving_mean_initializer": {"class_name": "Zeros", "config": {}}, "moving_variance_initializer": {"class_name": "Ones", "config": {}}, "beta_regularizer": null, "gamma_regularizer": null, "beta_constraint": null, "gamma_constraint": null}, "name": "batch_normalization_299", "inbound_nodes": [[["conv3d_311", 0, 0, {}]]]}, {"class_name": "Add", "config": {"name": "add_74", "trainable": true, "dtype": "float32"}, "name": "add_74", "inbound_nodes": [[["batch_normalization_246", 0, 0, {}], ["re_lu_224", 0, 0, {}]]]}, {"class_name": "Add", "config": {"name": "add_90", "trainable": true, "dtype": "float32"}, "name": "add_90", "inbound_nodes": [[["batch_normalization_299", 0, 0, {}], ["re_lu_273", 0, 0, {}]]]}, {"class_name": "ReLU", "config": {"name": "re_lu_227", "trainable": true, "dtype": "float32", "max_value": null, "negative_slope": 0.0, "threshold": 0.0}, "name": "re_lu_227", "inbound_nodes": [[["add_74", 0, 0, {}]]]}, {"class_name": "ReLU", "config": {"name": "re_lu_276", "trainable": true, "dtype": "float32", "max_value": null, "negative_slope": 0.0, "threshold": 0.0}, "name": "re_lu_276", "inbound_nodes": [[["add_90", 0, 0, {}]]]}, {"class_name": "Sequential", "config": {"name": "sequential_173", "layers": [{"class_name": "InputLayer", "config": {"batch_input_shape": [null, 13, 14, 14, 128], "dtype": "float32", "sparse": false, "ragged": false, "name": "conv3d_258_input"}}, {"class_name": "Conv3D", "config": {"name": "conv3d_258", "trainable": true, "dtype": "float32", "filters": 32, "kernel_size": [3, 1, 1], "strides": [1, 1, 1], "padding": "same", "data_format": "channels_last", "dilation_rate": [1, 1, 1], "groups": 1, "activation": "linear", "use_bias": false, "kernel_initializer": {"class_name": "VarianceScaling", "config": {"scale": 1.0, "mode": "fan_avg", "distribution": "uniform", "seed": null}}, "bias_initializer": {"class_name": "Zeros", "config": {}}, "kernel_regularizer": null, "bias_regularizer": null, "activity_regularizer": null, "kernel_constraint": null, "bias_constraint": null}}, {"class_name": "BatchNormalization", "config": {"name": "batch_normalization_247", "trainable": true, "dtype": "float32", "axis": [4], "momentum": 0.99, "epsilon": 0.001, "center": true, "scale": true, "beta_initializer": {"class_name": "Zeros", "config": {}}, "gamma_initializer": {"class_name": "Ones", "config": {}}, "moving_mean_initializer": {"class_name": "Zeros", "config": {}}, "moving_variance_initializer": {"class_name": "Ones", "config": {}}, "beta_regularizer": null, "gamma_regularizer": null, "beta_constraint": null, "gamma_constraint": null}}, {"class_name": "ReLU", "config": {"name": "re_lu_228", "trainable": true, "dtype": "float32", "max_value": null, "negative_slope": 0.0, "threshold": 0.0}}]}, "name": "sequential_173", "inbound_nodes": [[["re_lu_227", 0, 0, {}]]]}, {"class_name": "Sequential", "config": {"name": "sequential_210", "layers": [{"class_name": "InputLayer", "config": {"batch_input_shape": [null, 2, 14, 14, 1024], "dtype": "float32", "sparse": false, "ragged": false, "name": "conv3d_312_input"}}, {"class_name": "Conv3D", "config": {"name": "conv3d_312", "trainable": true, "dtype": "float32", "filters": 256, "kernel_size": [1, 1, 1], "strides": [1, 1, 1], "padding": "same", "data_format": "channels_last", "dilation_rate": [1, 1, 1], "groups": 1, "activation": "linear", "use_bias": false, "kernel_initializer": {"class_name": "VarianceScaling", "config": {"scale": 1.0, "mode": "fan_avg", "distribution": "uniform", "seed": null}}, "bias_initializer": {"class_name": "Zeros", "config": {}}, "kernel_regularizer": null, "bias_regularizer": null, "activity_regularizer": null, "kernel_constraint": null, "bias_constraint": null}}, {"class_name": "BatchNormalization", "config": {"name": "batch_normalization_300", "trainable": true, "dtype": "float32", "axis": [4], "momentum": 0.99, "epsilon": 0.001, "center": true, "scale": true, "beta_initializer": {"class_name": "Zeros", "config": {}}, "gamma_initializer": {"class_name": "Ones", "config": {}}, "moving_mean_initializer": {"class_name": "Zeros", "config": {}}, "moving_variance_initializer": {"class_name": "Ones", "config": {}}, "beta_regularizer": null, "gamma_regularizer": null, "beta_constraint": null, "gamma_constraint": null}}, {"class_name": "ReLU", "config": {"name": "re_lu_277", "trainable": true, "dtype": "float32", "max_value": null, "negative_slope": 0.0, "threshold": 0.0}}]}, "name": "sequential_210", "inbound_nodes": [[["re_lu_276", 0, 0, {}]]]}, {"class_name": "Sequential", "config": {"name": "sequential_174", "layers": [{"class_name": "InputLayer", "config": {"batch_input_shape": [null, 13, 14, 14, 32], "dtype": "float32", "sparse": false, "ragged": false, "name": "conv3d_259_input"}}, {"class_name": "Conv3D", "config": {"name": "conv3d_259", "trainable": true, "dtype": "float32", "filters": 32, "kernel_size": [1, 3, 3], "strides": [1, 1, 1], "padding": "same", "data_format": "channels_last", "dilation_rate": [1, 1, 1], "groups": 1, "activation": "linear", "use_bias": false, "kernel_initializer": {"class_name": "VarianceScaling", "config": {"scale": 1.0, "mode": "fan_avg", "distribution": "uniform", "seed": null}}, "bias_initializer": {"class_name": "Zeros", "config": {}}, "kernel_regularizer": null, "bias_regularizer": null, "activity_regularizer": null, "kernel_constraint": null, "bias_constraint": null}}, {"class_name": "BatchNormalization", "config": {"name": "batch_normalization_248", "trainable": true, "dtype": "float32", "axis": [4], "momentum": 0.99, "epsilon": 0.001, "center": true, "scale": true, "beta_initializer": {"class_name": "Zeros", "config": {}}, "gamma_initializer": {"class_name": "Ones", "config": {}}, "moving_mean_initializer": {"class_name": "Zeros", "config": {}}, "moving_variance_initializer": {"class_name": "Ones", "config": {}}, "beta_regularizer": null, "gamma_regularizer": null, "beta_constraint": null, "gamma_constraint": null}}, {"class_name": "ReLU", "config": {"name": "re_lu_229", "trainable": true, "dtype": "float32", "max_value": null, "negative_slope": 0.0, "threshold": 0.0}}]}, "name": "sequential_174", "inbound_nodes": [[["sequential_173", 1, 0, {}]]]}, {"class_name": "Sequential", "config": {"name": "sequential_211", "layers": [{"class_name": "InputLayer", "config": {"batch_input_shape": [null, 2, 14, 14, 256], "dtype": "float32", "sparse": false, "ragged": false, "name": "conv3d_313_input"}}, {"class_name": "Conv3D", "config": {"name": "conv3d_313", "trainable": true, "dtype": "float32", "filters": 256, "kernel_size": [1, 3, 3], "strides": [1, 1, 1], "padding": "same", "data_format": "channels_last", "dilation_rate": [1, 1, 1], "groups": 1, "activation": "linear", "use_bias": false, "kernel_initializer": {"class_name": "VarianceScaling", "config": {"scale": 1.0, "mode": "fan_avg", "distribution": "uniform", "seed": null}}, "bias_initializer": {"class_name": "Zeros", "config": {}}, "kernel_regularizer": null, "bias_regularizer": null, "activity_regularizer": null, "kernel_constraint": null, "bias_constraint": null}}, {"class_name": "BatchNormalization", "config": {"name": "batch_normalization_301", "trainable": true, "dtype": "float32", "axis": [4], "momentum": 0.99, "epsilon": 0.001, "center": true, "scale": true, "beta_initializer": {"class_name": "Zeros", "config": {}}, "gamma_initializer": {"class_name": "Ones", "config": {}}, "moving_mean_initializer": {"class_name": "Zeros", "config": {}}, "moving_variance_initializer": {"class_name": "Ones", "config": {}}, "beta_regularizer": null, "gamma_regularizer": null, "beta_constraint": null, "gamma_constraint": null}}, {"class_name": "ReLU", "config": {"name": "re_lu_278", "trainable": true, "dtype": "float32", "max_value": null, "negative_slope": 0.0, "threshold": 0.0}}]}, "name": "sequential_211", "inbound_nodes": [[["sequential_210", 1, 0, {}]]]}, {"class_name": "Conv3D", "config": {"name": "conv3d_260", "trainable": true, "dtype": "float32", "filters": 128, "kernel_size": [1, 1, 1], "strides": [1, 1, 1], "padding": "valid", "data_format": "channels_last", "dilation_rate": [1, 1, 1], "groups": 1, "activation": "linear", "use_bias": false, "kernel_initializer": {"class_name": "VarianceScaling", "config": {"scale": 1.0, "mode": "fan_avg", "distribution": "uniform", "seed": null}}, "bias_initializer": {"class_name": "Zeros", "config": {}}, "kernel_regularizer": null, "bias_regularizer": null, "activity_regularizer": null, "kernel_constraint": null, "bias_constraint": null}, "name": "conv3d_260", "inbound_nodes": [[["sequential_174", 1, 0, {}]]]}, {"class_name": "Conv3D", "config": {"name": "conv3d_314", "trainable": true, "dtype": "float32", "filters": 1024, "kernel_size": [1, 1, 1], "strides": [1, 1, 1], "padding": "valid", "data_format": "channels_last", "dilation_rate": [1, 1, 1], "groups": 1, "activation": "linear", "use_bias": false, "kernel_initializer": {"class_name": "VarianceScaling", "config": {"scale": 1.0, "mode": "fan_avg", "distribution": "uniform", "seed": null}}, "bias_initializer": {"class_name": "Zeros", "config": {}}, "kernel_regularizer": null, "bias_regularizer": null, "activity_regularizer": null, "kernel_constraint": null, "bias_constraint": null}, "name": "conv3d_314", "inbound_nodes": [[["sequential_211", 1, 0, {}]]]}, {"class_name": "BatchNormalization", "config": {"name": "batch_normalization_249", "trainable": true, "dtype": "float32", "axis": [4], "momentum": 0.99, "epsilon": 0.001, "center": true, "scale": true, "beta_initializer": {"class_name": "Zeros", "config": {}}, "gamma_initializer": {"class_name": "Ones", "config": {}}, "moving_mean_initializer": {"class_name": "Zeros", "config": {}}, "moving_variance_initializer": {"class_name": "Ones", "config": {}}, "beta_regularizer": null, "gamma_regularizer": null, "beta_constraint": null, "gamma_constraint": null}, "name": "batch_normalization_249", "inbound_nodes": [[["conv3d_260", 0, 0, {}]]]}, {"class_name": "BatchNormalization", "config": {"name": "batch_normalization_302", "trainable": true, "dtype": "float32", "axis": [4], "momentum": 0.99, "epsilon": 0.001, "center": true, "scale": true, "beta_initializer": {"class_name": "Zeros", "config": {}}, "gamma_initializer": {"class_name": "Ones", "config": {}}, "moving_mean_initializer": {"class_name": "Zeros", "config": {}}, "moving_variance_initializer": {"class_name": "Ones", "config": {}}, "beta_regularizer": null, "gamma_regularizer": null, "beta_constraint": null, "gamma_constraint": null}, "name": "batch_normalization_302", "inbound_nodes": [[["conv3d_314", 0, 0, {}]]]}, {"class_name": "Add", "config": {"name": "add_75", "trainable": true, "dtype": "float32"}, "name": "add_75", "inbound_nodes": [[["batch_normalization_249", 0, 0, {}], ["re_lu_227", 0, 0, {}]]]}, {"class_name": "Add", "config": {"name": "add_91", "trainable": true, "dtype": "float32"}, "name": "add_91", "inbound_nodes": [[["batch_normalization_302", 0, 0, {}], ["re_lu_276", 0, 0, {}]]]}, {"class_name": "ReLU", "config": {"name": "re_lu_230", "trainable": true, "dtype": "float32", "max_value": null, "negative_slope": 0.0, "threshold": 0.0}, "name": "re_lu_230", "inbound_nodes": [[["add_75", 0, 0, {}]]]}, {"class_name": "ReLU", "config": {"name": "re_lu_279", "trainable": true, "dtype": "float32", "max_value": null, "negative_slope": 0.0, "threshold": 0.0}, "name": "re_lu_279", "inbound_nodes": [[["add_91", 0, 0, {}]]]}, {"class_name": "Sequential", "config": {"name": "sequential_175", "layers": [{"class_name": "InputLayer", "config": {"batch_input_shape": [null, 13, 14, 14, 128], "dtype": "float32", "sparse": false, "ragged": false, "name": "conv3d_261_input"}}, {"class_name": "Conv3D", "config": {"name": "conv3d_261", "trainable": true, "dtype": "float32", "filters": 32, "kernel_size": [3, 1, 1], "strides": [1, 1, 1], "padding": "same", "data_format": "channels_last", "dilation_rate": [1, 1, 1], "groups": 1, "activation": "linear", "use_bias": false, "kernel_initializer": {"class_name": "VarianceScaling", "config": {"scale": 1.0, "mode": "fan_avg", "distribution": "uniform", "seed": null}}, "bias_initializer": {"class_name": "Zeros", "config": {}}, "kernel_regularizer": null, "bias_regularizer": null, "activity_regularizer": null, "kernel_constraint": null, "bias_constraint": null}}, {"class_name": "BatchNormalization", "config": {"name": "batch_normalization_250", "trainable": true, "dtype": "float32", "axis": [4], "momentum": 0.99, "epsilon": 0.001, "center": true, "scale": true, "beta_initializer": {"class_name": "Zeros", "config": {}}, "gamma_initializer": {"class_name": "Ones", "config": {}}, "moving_mean_initializer": {"class_name": "Zeros", "config": {}}, "moving_variance_initializer": {"class_name": "Ones", "config": {}}, "beta_regularizer": null, "gamma_regularizer": null, "beta_constraint": null, "gamma_constraint": null}}, {"class_name": "ReLU", "config": {"name": "re_lu_231", "trainable": true, "dtype": "float32", "max_value": null, "negative_slope": 0.0, "threshold": 0.0}}]}, "name": "sequential_175", "inbound_nodes": [[["re_lu_230", 0, 0, {}]]]}, {"class_name": "Sequential", "config": {"name": "sequential_212", "layers": [{"class_name": "InputLayer", "config": {"batch_input_shape": [null, 2, 14, 14, 1024], "dtype": "float32", "sparse": false, "ragged": false, "name": "conv3d_315_input"}}, {"class_name": "Conv3D", "config": {"name": "conv3d_315", "trainable": true, "dtype": "float32", "filters": 256, "kernel_size": [1, 1, 1], "strides": [1, 1, 1], "padding": "same", "data_format": "channels_last", "dilation_rate": [1, 1, 1], "groups": 1, "activation": "linear", "use_bias": false, "kernel_initializer": {"class_name": "VarianceScaling", "config": {"scale": 1.0, "mode": "fan_avg", "distribution": "uniform", "seed": null}}, "bias_initializer": {"class_name": "Zeros", "config": {}}, "kernel_regularizer": null, "bias_regularizer": null, "activity_regularizer": null, "kernel_constraint": null, "bias_constraint": null}}, {"class_name": "BatchNormalization", "config": {"name": "batch_normalization_303", "trainable": true, "dtype": "float32", "axis": [4], "momentum": 0.99, "epsilon": 0.001, "center": true, "scale": true, "beta_initializer": {"class_name": "Zeros", "config": {}}, "gamma_initializer": {"class_name": "Ones", "config": {}}, "moving_mean_initializer": {"class_name": "Zeros", "config": {}}, "moving_variance_initializer": {"class_name": "Ones", "config": {}}, "beta_regularizer": null, "gamma_regularizer": null, "beta_constraint": null, "gamma_constraint": null}}, {"class_name": "ReLU", "config": {"name": "re_lu_280", "trainable": true, "dtype": "float32", "max_value": null, "negative_slope": 0.0, "threshold": 0.0}}]}, "name": "sequential_212", "inbound_nodes": [[["re_lu_279", 0, 0, {}]]]}, {"class_name": "Sequential", "config": {"name": "sequential_176", "layers": [{"class_name": "InputLayer", "config": {"batch_input_shape": [null, 13, 14, 14, 32], "dtype": "float32", "sparse": false, "ragged": false, "name": "conv3d_262_input"}}, {"class_name": "Conv3D", "config": {"name": "conv3d_262", "trainable": true, "dtype": "float32", "filters": 32, "kernel_size": [1, 3, 3], "strides": [1, 1, 1], "padding": "same", "data_format": "channels_last", "dilation_rate": [1, 1, 1], "groups": 1, "activation": "linear", "use_bias": false, "kernel_initializer": {"class_name": "VarianceScaling", "config": {"scale": 1.0, "mode": "fan_avg", "distribution": "uniform", "seed": null}}, "bias_initializer": {"class_name": "Zeros", "config": {}}, "kernel_regularizer": null, "bias_regularizer": null, "activity_regularizer": null, "kernel_constraint": null, "bias_constraint": null}}, {"class_name": "BatchNormalization", "config": {"name": "batch_normalization_251", "trainable": true, "dtype": "float32", "axis": [4], "momentum": 0.99, "epsilon": 0.001, "center": true, "scale": true, "beta_initializer": {"class_name": "Zeros", "config": {}}, "gamma_initializer": {"class_name": "Ones", "config": {}}, "moving_mean_initializer": {"class_name": "Zeros", "config": {}}, "moving_variance_initializer": {"class_name": "Ones", "config": {}}, "beta_regularizer": null, "gamma_regularizer": null, "beta_constraint": null, "gamma_constraint": null}}, {"class_name": "ReLU", "config": {"name": "re_lu_232", "trainable": true, "dtype": "float32", "max_value": null, "negative_slope": 0.0, "threshold": 0.0}}]}, "name": "sequential_176", "inbound_nodes": [[["sequential_175", 1, 0, {}]]]}, {"class_name": "Sequential", "config": {"name": "sequential_213", "layers": [{"class_name": "InputLayer", "config": {"batch_input_shape": [null, 2, 14, 14, 256], "dtype": "float32", "sparse": false, "ragged": false, "name": "conv3d_316_input"}}, {"class_name": "Conv3D", "config": {"name": "conv3d_316", "trainable": true, "dtype": "float32", "filters": 256, "kernel_size": [1, 3, 3], "strides": [1, 1, 1], "padding": "same", "data_format": "channels_last", "dilation_rate": [1, 1, 1], "groups": 1, "activation": "linear", "use_bias": false, "kernel_initializer": {"class_name": "VarianceScaling", "config": {"scale": 1.0, "mode": "fan_avg", "distribution": "uniform", "seed": null}}, "bias_initializer": {"class_name": "Zeros", "config": {}}, "kernel_regularizer": null, "bias_regularizer": null, "activity_regularizer": null, "kernel_constraint": null, "bias_constraint": null}}, {"class_name": "BatchNormalization", "config": {"name": "batch_normalization_304", "trainable": true, "dtype": "float32", "axis": [4], "momentum": 0.99, "epsilon": 0.001, "center": true, "scale": true, "beta_initializer": {"class_name": "Zeros", "config": {}}, "gamma_initializer": {"class_name": "Ones", "config": {}}, "moving_mean_initializer": {"class_name": "Zeros", "config": {}}, "moving_variance_initializer": {"class_name": "Ones", "config": {}}, "beta_regularizer": null, "gamma_regularizer": null, "beta_constraint": null, "gamma_constraint": null}}, {"class_name": "ReLU", "config": {"name": "re_lu_281", "trainable": true, "dtype": "float32", "max_value": null, "negative_slope": 0.0, "threshold": 0.0}}]}, "name": "sequential_213", "inbound_nodes": [[["sequential_212", 1, 0, {}]]]}, {"class_name": "Conv3D", "config": {"name": "conv3d_263", "trainable": true, "dtype": "float32", "filters": 128, "kernel_size": [1, 1, 1], "strides": [1, 1, 1], "padding": "valid", "data_format": "channels_last", "dilation_rate": [1, 1, 1], "groups": 1, "activation": "linear", "use_bias": false, "kernel_initializer": {"class_name": "VarianceScaling", "config": {"scale": 1.0, "mode": "fan_avg", "distribution": "uniform", "seed": null}}, "bias_initializer": {"class_name": "Zeros", "config": {}}, "kernel_regularizer": null, "bias_regularizer": null, "activity_regularizer": null, "kernel_constraint": null, "bias_constraint": null}, "name": "conv3d_263", "inbound_nodes": [[["sequential_176", 1, 0, {}]]]}, {"class_name": "Conv3D", "config": {"name": "conv3d_317", "trainable": true, "dtype": "float32", "filters": 1024, "kernel_size": [1, 1, 1], "strides": [1, 1, 1], "padding": "valid", "data_format": "channels_last", "dilation_rate": [1, 1, 1], "groups": 1, "activation": "linear", "use_bias": false, "kernel_initializer": {"class_name": "VarianceScaling", "config": {"scale": 1.0, "mode": "fan_avg", "distribution": "uniform", "seed": null}}, "bias_initializer": {"class_name": "Zeros", "config": {}}, "kernel_regularizer": null, "bias_regularizer": null, "activity_regularizer": null, "kernel_constraint": null, "bias_constraint": null}, "name": "conv3d_317", "inbound_nodes": [[["sequential_213", 1, 0, {}]]]}, {"class_name": "BatchNormalization", "config": {"name": "batch_normalization_252", "trainable": true, "dtype": "float32", "axis": [4], "momentum": 0.99, "epsilon": 0.001, "center": true, "scale": true, "beta_initializer": {"class_name": "Zeros", "config": {}}, "gamma_initializer": {"class_name": "Ones", "config": {}}, "moving_mean_initializer": {"class_name": "Zeros", "config": {}}, "moving_variance_initializer": {"class_name": "Ones", "config": {}}, "beta_regularizer": null, "gamma_regularizer": null, "beta_constraint": null, "gamma_constraint": null}, "name": "batch_normalization_252", "inbound_nodes": [[["conv3d_263", 0, 0, {}]]]}, {"class_name": "BatchNormalization", "config": {"name": "batch_normalization_305", "trainable": true, "dtype": "float32", "axis": [4], "momentum": 0.99, "epsilon": 0.001, "center": true, "scale": true, "beta_initializer": {"class_name": "Zeros", "config": {}}, "gamma_initializer": {"class_name": "Ones", "config": {}}, "moving_mean_initializer": {"class_name": "Zeros", "config": {}}, "moving_variance_initializer": {"class_name": "Ones", "config": {}}, "beta_regularizer": null, "gamma_regularizer": null, "beta_constraint": null, "gamma_constraint": null}, "name": "batch_normalization_305", "inbound_nodes": [[["conv3d_317", 0, 0, {}]]]}, {"class_name": "Add", "config": {"name": "add_76", "trainable": true, "dtype": "float32"}, "name": "add_76", "inbound_nodes": [[["batch_normalization_252", 0, 0, {}], ["re_lu_230", 0, 0, {}]]]}, {"class_name": "Add", "config": {"name": "add_92", "trainable": true, "dtype": "float32"}, "name": "add_92", "inbound_nodes": [[["batch_normalization_305", 0, 0, {}], ["re_lu_279", 0, 0, {}]]]}, {"class_name": "ReLU", "config": {"name": "re_lu_233", "trainable": true, "dtype": "float32", "max_value": null, "negative_slope": 0.0, "threshold": 0.0}, "name": "re_lu_233", "inbound_nodes": [[["add_76", 0, 0, {}]]]}, {"class_name": "ReLU", "config": {"name": "re_lu_282", "trainable": true, "dtype": "float32", "max_value": null, "negative_slope": 0.0, "threshold": 0.0}, "name": "re_lu_282", "inbound_nodes": [[["add_92", 0, 0, {}]]]}, {"class_name": "Sequential", "config": {"name": "sequential_177", "layers": [{"class_name": "InputLayer", "config": {"batch_input_shape": [null, 13, 14, 14, 128], "dtype": "float32", "sparse": false, "ragged": false, "name": "conv3d_264_input"}}, {"class_name": "Conv3D", "config": {"name": "conv3d_264", "trainable": true, "dtype": "float32", "filters": 32, "kernel_size": [3, 1, 1], "strides": [1, 1, 1], "padding": "same", "data_format": "channels_last", "dilation_rate": [1, 1, 1], "groups": 1, "activation": "linear", "use_bias": false, "kernel_initializer": {"class_name": "VarianceScaling", "config": {"scale": 1.0, "mode": "fan_avg", "distribution": "uniform", "seed": null}}, "bias_initializer": {"class_name": "Zeros", "config": {}}, "kernel_regularizer": null, "bias_regularizer": null, "activity_regularizer": null, "kernel_constraint": null, "bias_constraint": null}}, {"class_name": "BatchNormalization", "config": {"name": "batch_normalization_253", "trainable": true, "dtype": "float32", "axis": [4], "momentum": 0.99, "epsilon": 0.001, "center": true, "scale": true, "beta_initializer": {"class_name": "Zeros", "config": {}}, "gamma_initializer": {"class_name": "Ones", "config": {}}, "moving_mean_initializer": {"class_name": "Zeros", "config": {}}, "moving_variance_initializer": {"class_name": "Ones", "config": {}}, "beta_regularizer": null, "gamma_regularizer": null, "beta_constraint": null, "gamma_constraint": null}}, {"class_name": "ReLU", "config": {"name": "re_lu_234", "trainable": true, "dtype": "float32", "max_value": null, "negative_slope": 0.0, "threshold": 0.0}}]}, "name": "sequential_177", "inbound_nodes": [[["re_lu_233", 0, 0, {}]]]}, {"class_name": "Sequential", "config": {"name": "sequential_214", "layers": [{"class_name": "InputLayer", "config": {"batch_input_shape": [null, 2, 14, 14, 1024], "dtype": "float32", "sparse": false, "ragged": false, "name": "conv3d_318_input"}}, {"class_name": "Conv3D", "config": {"name": "conv3d_318", "trainable": true, "dtype": "float32", "filters": 256, "kernel_size": [1, 1, 1], "strides": [1, 1, 1], "padding": "same", "data_format": "channels_last", "dilation_rate": [1, 1, 1], "groups": 1, "activation": "linear", "use_bias": false, "kernel_initializer": {"class_name": "VarianceScaling", "config": {"scale": 1.0, "mode": "fan_avg", "distribution": "uniform", "seed": null}}, "bias_initializer": {"class_name": "Zeros", "config": {}}, "kernel_regularizer": null, "bias_regularizer": null, "activity_regularizer": null, "kernel_constraint": null, "bias_constraint": null}}, {"class_name": "BatchNormalization", "config": {"name": "batch_normalization_306", "trainable": true, "dtype": "float32", "axis": [4], "momentum": 0.99, "epsilon": 0.001, "center": true, "scale": true, "beta_initializer": {"class_name": "Zeros", "config": {}}, "gamma_initializer": {"class_name": "Ones", "config": {}}, "moving_mean_initializer": {"class_name": "Zeros", "config": {}}, "moving_variance_initializer": {"class_name": "Ones", "config": {}}, "beta_regularizer": null, "gamma_regularizer": null, "beta_constraint": null, "gamma_constraint": null}}, {"class_name": "ReLU", "config": {"name": "re_lu_283", "trainable": true, "dtype": "float32", "max_value": null, "negative_slope": 0.0, "threshold": 0.0}}]}, "name": "sequential_214", "inbound_nodes": [[["re_lu_282", 0, 0, {}]]]}, {"class_name": "Sequential", "config": {"name": "sequential_178", "layers": [{"class_name": "InputLayer", "config": {"batch_input_shape": [null, 13, 14, 14, 32], "dtype": "float32", "sparse": false, "ragged": false, "name": "conv3d_265_input"}}, {"class_name": "Conv3D", "config": {"name": "conv3d_265", "trainable": true, "dtype": "float32", "filters": 32, "kernel_size": [1, 3, 3], "strides": [1, 1, 1], "padding": "same", "data_format": "channels_last", "dilation_rate": [1, 1, 1], "groups": 1, "activation": "linear", "use_bias": false, "kernel_initializer": {"class_name": "VarianceScaling", "config": {"scale": 1.0, "mode": "fan_avg", "distribution": "uniform", "seed": null}}, "bias_initializer": {"class_name": "Zeros", "config": {}}, "kernel_regularizer": null, "bias_regularizer": null, "activity_regularizer": null, "kernel_constraint": null, "bias_constraint": null}}, {"class_name": "BatchNormalization", "config": {"name": "batch_normalization_254", "trainable": true, "dtype": "float32", "axis": [4], "momentum": 0.99, "epsilon": 0.001, "center": true, "scale": true, "beta_initializer": {"class_name": "Zeros", "config": {}}, "gamma_initializer": {"class_name": "Ones", "config": {}}, "moving_mean_initializer": {"class_name": "Zeros", "config": {}}, "moving_variance_initializer": {"class_name": "Ones", "config": {}}, "beta_regularizer": null, "gamma_regularizer": null, "beta_constraint": null, "gamma_constraint": null}}, {"class_name": "ReLU", "config": {"name": "re_lu_235", "trainable": true, "dtype": "float32", "max_value": null, "negative_slope": 0.0, "threshold": 0.0}}]}, "name": "sequential_178", "inbound_nodes": [[["sequential_177", 1, 0, {}]]]}, {"class_name": "Sequential", "config": {"name": "sequential_215", "layers": [{"class_name": "InputLayer", "config": {"batch_input_shape": [null, 2, 14, 14, 256], "dtype": "float32", "sparse": false, "ragged": false, "name": "conv3d_319_input"}}, {"class_name": "Conv3D", "config": {"name": "conv3d_319", "trainable": true, "dtype": "float32", "filters": 256, "kernel_size": [1, 3, 3], "strides": [1, 1, 1], "padding": "same", "data_format": "channels_last", "dilation_rate": [1, 1, 1], "groups": 1, "activation": "linear", "use_bias": false, "kernel_initializer": {"class_name": "VarianceScaling", "config": {"scale": 1.0, "mode": "fan_avg", "distribution": "uniform", "seed": null}}, "bias_initializer": {"class_name": "Zeros", "config": {}}, "kernel_regularizer": null, "bias_regularizer": null, "activity_regularizer": null, "kernel_constraint": null, "bias_constraint": null}}, {"class_name": "BatchNormalization", "config": {"name": "batch_normalization_307", "trainable": true, "dtype": "float32", "axis": [4], "momentum": 0.99, "epsilon": 0.001, "center": true, "scale": true, "beta_initializer": {"class_name": "Zeros", "config": {}}, "gamma_initializer": {"class_name": "Ones", "config": {}}, "moving_mean_initializer": {"class_name": "Zeros", "config": {}}, "moving_variance_initializer": {"class_name": "Ones", "config": {}}, "beta_regularizer": null, "gamma_regularizer": null, "beta_constraint": null, "gamma_constraint": null}}, {"class_name": "ReLU", "config": {"name": "re_lu_284", "trainable": true, "dtype": "float32", "max_value": null, "negative_slope": 0.0, "threshold": 0.0}}]}, "name": "sequential_215", "inbound_nodes": [[["sequential_214", 1, 0, {}]]]}, {"class_name": "Conv3D", "config": {"name": "conv3d_266", "trainable": true, "dtype": "float32", "filters": 128, "kernel_size": [1, 1, 1], "strides": [1, 1, 1], "padding": "valid", "data_format": "channels_last", "dilation_rate": [1, 1, 1], "groups": 1, "activation": "linear", "use_bias": false, "kernel_initializer": {"class_name": "VarianceScaling", "config": {"scale": 1.0, "mode": "fan_avg", "distribution": "uniform", "seed": null}}, "bias_initializer": {"class_name": "Zeros", "config": {}}, "kernel_regularizer": null, "bias_regularizer": null, "activity_regularizer": null, "kernel_constraint": null, "bias_constraint": null}, "name": "conv3d_266", "inbound_nodes": [[["sequential_178", 1, 0, {}]]]}, {"class_name": "Conv3D", "config": {"name": "conv3d_320", "trainable": true, "dtype": "float32", "filters": 1024, "kernel_size": [1, 1, 1], "strides": [1, 1, 1], "padding": "valid", "data_format": "channels_last", "dilation_rate": [1, 1, 1], "groups": 1, "activation": "linear", "use_bias": false, "kernel_initializer": {"class_name": "VarianceScaling", "config": {"scale": 1.0, "mode": "fan_avg", "distribution": "uniform", "seed": null}}, "bias_initializer": {"class_name": "Zeros", "config": {}}, "kernel_regularizer": null, "bias_regularizer": null, "activity_regularizer": null, "kernel_constraint": null, "bias_constraint": null}, "name": "conv3d_320", "inbound_nodes": [[["sequential_215", 1, 0, {}]]]}, {"class_name": "BatchNormalization", "config": {"name": "batch_normalization_255", "trainable": true, "dtype": "float32", "axis": [4], "momentum": 0.99, "epsilon": 0.001, "center": true, "scale": true, "beta_initializer": {"class_name": "Zeros", "config": {}}, "gamma_initializer": {"class_name": "Ones", "config": {}}, "moving_mean_initializer": {"class_name": "Zeros", "config": {}}, "moving_variance_initializer": {"class_name": "Ones", "config": {}}, "beta_regularizer": null, "gamma_regularizer": null, "beta_constraint": null, "gamma_constraint": null}, "name": "batch_normalization_255", "inbound_nodes": [[["conv3d_266", 0, 0, {}]]]}, {"class_name": "BatchNormalization", "config": {"name": "batch_normalization_308", "trainable": true, "dtype": "float32", "axis": [4], "momentum": 0.99, "epsilon": 0.001, "center": true, "scale": true, "beta_initializer": {"class_name": "Zeros", "config": {}}, "gamma_initializer": {"class_name": "Ones", "config": {}}, "moving_mean_initializer": {"class_name": "Zeros", "config": {}}, "moving_variance_initializer": {"class_name": "Ones", "config": {}}, "beta_regularizer": null, "gamma_regularizer": null, "beta_constraint": null, "gamma_constraint": null}, "name": "batch_normalization_308", "inbound_nodes": [[["conv3d_320", 0, 0, {}]]]}, {"class_name": "Add", "config": {"name": "add_77", "trainable": true, "dtype": "float32"}, "name": "add_77", "inbound_nodes": [[["batch_normalization_255", 0, 0, {}], ["re_lu_233", 0, 0, {}]]]}, {"class_name": "Add", "config": {"name": "add_93", "trainable": true, "dtype": "float32"}, "name": "add_93", "inbound_nodes": [[["batch_normalization_308", 0, 0, {}], ["re_lu_282", 0, 0, {}]]]}, {"class_name": "ReLU", "config": {"name": "re_lu_236", "trainable": true, "dtype": "float32", "max_value": null, "negative_slope": 0.0, "threshold": 0.0}, "name": "re_lu_236", "inbound_nodes": [[["add_77", 0, 0, {}]]]}, {"class_name": "ReLU", "config": {"name": "re_lu_285", "trainable": true, "dtype": "float32", "max_value": null, "negative_slope": 0.0, "threshold": 0.0}, "name": "re_lu_285", "inbound_nodes": [[["add_93", 0, 0, {}]]]}, {"class_name": "Conv3D", "config": {"name": "conv3d_267", "trainable": true, "dtype": "float32", "filters": 256, "kernel_size": [5, 1, 1], "strides": [8, 1, 1], "padding": "same", "data_format": "channels_last", "dilation_rate": [1, 1, 1], "groups": 1, "activation": "linear", "use_bias": false, "kernel_initializer": {"class_name": "VarianceScaling", "config": {"scale": 1.0, "mode": "fan_avg", "distribution": "uniform", "seed": null}}, "bias_initializer": {"class_name": "Zeros", "config": {}}, "kernel_regularizer": null, "bias_regularizer": null, "activity_regularizer": null, "kernel_constraint": null, "bias_constraint": null}, "name": "conv3d_267", "inbound_nodes": [[["re_lu_236", 0, 0, {}]]]}, {"class_name": "Concatenate", "config": {"name": "concatenate_14", "trainable": true, "dtype": "float32", "axis": -1}, "name": "concatenate_14", "inbound_nodes": [[["re_lu_285", 0, 0, {}], ["conv3d_267", 0, 0, {}]]]}, {"class_name": "Sequential", "config": {"name": "sequential_217", "layers": [{"class_name": "InputLayer", "config": {"batch_input_shape": [null, 2, 14, 14, 1280], "dtype": "float32", "sparse": false, "ragged": false, "name": "conv3d_322_input"}}, {"class_name": "Conv3D", "config": {"name": "conv3d_322", "trainable": true, "dtype": "float32", "filters": 512, "kernel_size": [1, 1, 1], "strides": [1, 1, 1], "padding": "same", "data_format": "channels_last", "dilation_rate": [1, 1, 1], "groups": 1, "activation": "linear", "use_bias": false, "kernel_initializer": {"class_name": "VarianceScaling", "config": {"scale": 1.0, "mode": "fan_avg", "distribution": "uniform", "seed": null}}, "bias_initializer": {"class_name": "Zeros", "config": {}}, "kernel_regularizer": null, "bias_regularizer": null, "activity_regularizer": null, "kernel_constraint": null, "bias_constraint": null}}, {"class_name": "BatchNormalization", "config": {"name": "batch_normalization_310", "trainable": true, "dtype": "float32", "axis": [4], "momentum": 0.99, "epsilon": 0.001, "center": true, "scale": true, "beta_initializer": {"class_name": "Zeros", "config": {}}, "gamma_initializer": {"class_name": "Ones", "config": {}}, "moving_mean_initializer": {"class_name": "Zeros", "config": {}}, "moving_variance_initializer": {"class_name": "Ones", "config": {}}, "beta_regularizer": null, "gamma_regularizer": null, "beta_constraint": null, "gamma_constraint": null}}, {"class_name": "ReLU", "config": {"name": "re_lu_286", "trainable": true, "dtype": "float32", "max_value": null, "negative_slope": 0.0, "threshold": 0.0}}]}, "name": "sequential_217", "inbound_nodes": [[["concatenate_14", 0, 0, {}]]]}, {"class_name": "Sequential", "config": {"name": "sequential_180", "layers": [{"class_name": "InputLayer", "config": {"batch_input_shape": [null, 13, 14, 14, 128], "dtype": "float32", "sparse": false, "ragged": false, "name": "conv3d_269_input"}}, {"class_name": "Conv3D", "config": {"name": "conv3d_269", "trainable": true, "dtype": "float32", "filters": 64, "kernel_size": [3, 1, 1], "strides": [1, 1, 1], "padding": "same", "data_format": "channels_last", "dilation_rate": [1, 1, 1], "groups": 1, "activation": "linear", "use_bias": false, "kernel_initializer": {"class_name": "VarianceScaling", "config": {"scale": 1.0, "mode": "fan_avg", "distribution": "uniform", "seed": null}}, "bias_initializer": {"class_name": "Zeros", "config": {}}, "kernel_regularizer": null, "bias_regularizer": null, "activity_regularizer": null, "kernel_constraint": null, "bias_constraint": null}}, {"class_name": "BatchNormalization", "config": {"name": "batch_normalization_257", "trainable": true, "dtype": "float32", "axis": [4], "momentum": 0.99, "epsilon": 0.001, "center": true, "scale": true, "beta_initializer": {"class_name": "Zeros", "config": {}}, "gamma_initializer": {"class_name": "Ones", "config": {}}, "moving_mean_initializer": {"class_name": "Zeros", "config": {}}, "moving_variance_initializer": {"class_name": "Ones", "config": {}}, "beta_regularizer": null, "gamma_regularizer": null, "beta_constraint": null, "gamma_constraint": null}}, {"class_name": "ReLU", "config": {"name": "re_lu_237", "trainable": true, "dtype": "float32", "max_value": null, "negative_slope": 0.0, "threshold": 0.0}}]}, "name": "sequential_180", "inbound_nodes": [[["re_lu_236", 0, 0, {}]]]}, {"class_name": "Sequential", "config": {"name": "sequential_218", "layers": [{"class_name": "InputLayer", "config": {"batch_input_shape": [null, 2, 14, 14, 512], "dtype": "float32", "sparse": false, "ragged": false, "name": "conv3d_323_input"}}, {"class_name": "Conv3D", "config": {"name": "conv3d_323", "trainable": true, "dtype": "float32", "filters": 512, "kernel_size": [1, 3, 3], "strides": [1, 2, 2], "padding": "same", "data_format": "channels_last", "dilation_rate": [1, 1, 1], "groups": 1, "activation": "linear", "use_bias": false, "kernel_initializer": {"class_name": "VarianceScaling", "config": {"scale": 1.0, "mode": "fan_avg", "distribution": "uniform", "seed": null}}, "bias_initializer": {"class_name": "Zeros", "config": {}}, "kernel_regularizer": null, "bias_regularizer": null, "activity_regularizer": null, "kernel_constraint": null, "bias_constraint": null}}, {"class_name": "BatchNormalization", "config": {"name": "batch_normalization_311", "trainable": true, "dtype": "float32", "axis": [4], "momentum": 0.99, "epsilon": 0.001, "center": true, "scale": true, "beta_initializer": {"class_name": "Zeros", "config": {}}, "gamma_initializer": {"class_name": "Ones", "config": {}}, "moving_mean_initializer": {"class_name": "Zeros", "config": {}}, "moving_variance_initializer": {"class_name": "Ones", "config": {}}, "beta_regularizer": null, "gamma_regularizer": null, "beta_constraint": null, "gamma_constraint": null}}, {"class_name": "ReLU", "config": {"name": "re_lu_287", "trainable": true, "dtype": "float32", "max_value": null, "negative_slope": 0.0, "threshold": 0.0}}]}, "name": "sequential_218", "inbound_nodes": [[["sequential_217", 1, 0, {}]]]}, {"class_name": "Sequential", "config": {"name": "sequential_181", "layers": [{"class_name": "InputLayer", "config": {"batch_input_shape": [null, 13, 14, 14, 64], "dtype": "float32", "sparse": false, "ragged": false, "name": "conv3d_270_input"}}, {"class_name": "Conv3D", "config": {"name": "conv3d_270", "trainable": true, "dtype": "float32", "filters": 64, "kernel_size": [1, 3, 3], "strides": [1, 2, 2], "padding": "same", "data_format": "channels_last", "dilation_rate": [1, 1, 1], "groups": 1, "activation": "linear", "use_bias": false, "kernel_initializer": {"class_name": "VarianceScaling", "config": {"scale": 1.0, "mode": "fan_avg", "distribution": "uniform", "seed": null}}, "bias_initializer": {"class_name": "Zeros", "config": {}}, "kernel_regularizer": null, "bias_regularizer": null, "activity_regularizer": null, "kernel_constraint": null, "bias_constraint": null}}, {"class_name": "BatchNormalization", "config": {"name": "batch_normalization_258", "trainable": true, "dtype": "float32", "axis": [4], "momentum": 0.99, "epsilon": 0.001, "center": true, "scale": true, "beta_initializer": {"class_name": "Zeros", "config": {}}, "gamma_initializer": {"class_name": "Ones", "config": {}}, "moving_mean_initializer": {"class_name": "Zeros", "config": {}}, "moving_variance_initializer": {"class_name": "Ones", "config": {}}, "beta_regularizer": null, "gamma_regularizer": null, "beta_constraint": null, "gamma_constraint": null}}, {"class_name": "ReLU", "config": {"name": "re_lu_238", "trainable": true, "dtype": "float32", "max_value": null, "negative_slope": 0.0, "threshold": 0.0}}]}, "name": "sequential_181", "inbound_nodes": [[["sequential_180", 1, 0, {}]]]}, {"class_name": "Conv3D", "config": {"name": "conv3d_324", "trainable": true, "dtype": "float32", "filters": 2048, "kernel_size": [1, 1, 1], "strides": [1, 1, 1], "padding": "valid", "data_format": "channels_last", "dilation_rate": [1, 1, 1], "groups": 1, "activation": "linear", "use_bias": false, "kernel_initializer": {"class_name": "VarianceScaling", "config": {"scale": 1.0, "mode": "fan_avg", "distribution": "uniform", "seed": null}}, "bias_initializer": {"class_name": "Zeros", "config": {}}, "kernel_regularizer": null, "bias_regularizer": null, "activity_regularizer": null, "kernel_constraint": null, "bias_constraint": null}, "name": "conv3d_324", "inbound_nodes": [[["sequential_218", 1, 0, {}]]]}, {"class_name": "Conv3D", "config": {"name": "conv3d_271", "trainable": true, "dtype": "float32", "filters": 256, "kernel_size": [1, 1, 1], "strides": [1, 1, 1], "padding": "valid", "data_format": "channels_last", "dilation_rate": [1, 1, 1], "groups": 1, "activation": "linear", "use_bias": false, "kernel_initializer": {"class_name": "VarianceScaling", "config": {"scale": 1.0, "mode": "fan_avg", "distribution": "uniform", "seed": null}}, "bias_initializer": {"class_name": "Zeros", "config": {}}, "kernel_regularizer": null, "bias_regularizer": null, "activity_regularizer": null, "kernel_constraint": null, "bias_constraint": null}, "name": "conv3d_271", "inbound_nodes": [[["sequential_181", 1, 0, {}]]]}, {"class_name": "BatchNormalization", "config": {"name": "batch_normalization_312", "trainable": true, "dtype": "float32", "axis": [4], "momentum": 0.99, "epsilon": 0.001, "center": true, "scale": true, "beta_initializer": {"class_name": "Zeros", "config": {}}, "gamma_initializer": {"class_name": "Ones", "config": {}}, "moving_mean_initializer": {"class_name": "Zeros", "config": {}}, "moving_variance_initializer": {"class_name": "Ones", "config": {}}, "beta_regularizer": null, "gamma_regularizer": null, "beta_constraint": null, "gamma_constraint": null}, "name": "batch_normalization_312", "inbound_nodes": [[["conv3d_324", 0, 0, {}]]]}, {"class_name": "Sequential", "config": {"name": "sequential_216", "layers": [{"class_name": "InputLayer", "config": {"batch_input_shape": [null, 2, 14, 14, 1280], "dtype": "float32", "sparse": false, "ragged": false, "name": "conv3d_321_input"}}, {"class_name": "Conv3D", "config": {"name": "conv3d_321", "trainable": true, "dtype": "float32", "filters": 2048, "kernel_size": [1, 1, 1], "strides": [1, 2, 2], "padding": "valid", "data_format": "channels_last", "dilation_rate": [1, 1, 1], "groups": 1, "activation": "linear", "use_bias": false, "kernel_initializer": {"class_name": "VarianceScaling", "config": {"scale": 1.0, "mode": "fan_avg", "distribution": "uniform", "seed": null}}, "bias_initializer": {"class_name": "Zeros", "config": {}}, "kernel_regularizer": null, "bias_regularizer": null, "activity_regularizer": null, "kernel_constraint": null, "bias_constraint": null}}, {"class_name": "BatchNormalization", "config": {"name": "batch_normalization_309", "trainable": true, "dtype": "float32", "axis": [4], "momentum": 0.99, "epsilon": 0.001, "center": true, "scale": true, "beta_initializer": {"class_name": "Zeros", "config": {}}, "gamma_initializer": {"class_name": "Ones", "config": {}}, "moving_mean_initializer": {"class_name": "Zeros", "config": {}}, "moving_variance_initializer": {"class_name": "Ones", "config": {}}, "beta_regularizer": null, "gamma_regularizer": null, "beta_constraint": null, "gamma_constraint": null}}]}, "name": "sequential_216", "inbound_nodes": [[["concatenate_14", 0, 0, {}]]]}, {"class_name": "BatchNormalization", "config": {"name": "batch_normalization_259", "trainable": true, "dtype": "float32", "axis": [4], "momentum": 0.99, "epsilon": 0.001, "center": true, "scale": true, "beta_initializer": {"class_name": "Zeros", "config": {}}, "gamma_initializer": {"class_name": "Ones", "config": {}}, "moving_mean_initializer": {"class_name": "Zeros", "config": {}}, "moving_variance_initializer": {"class_name": "Ones", "config": {}}, "beta_regularizer": null, "gamma_regularizer": null, "beta_constraint": null, "gamma_constraint": null}, "name": "batch_normalization_259", "inbound_nodes": [[["conv3d_271", 0, 0, {}]]]}, {"class_name": "Sequential", "config": {"name": "sequential_179", "layers": [{"class_name": "InputLayer", "config": {"batch_input_shape": [null, 13, 14, 14, 128], "dtype": "float32", "sparse": false, "ragged": false, "name": "conv3d_268_input"}}, {"class_name": "Conv3D", "config": {"name": "conv3d_268", "trainable": true, "dtype": "float32", "filters": 256, "kernel_size": [1, 1, 1], "strides": [1, 2, 2], "padding": "valid", "data_format": "channels_last", "dilation_rate": [1, 1, 1], "groups": 1, "activation": "linear", "use_bias": false, "kernel_initializer": {"class_name": "VarianceScaling", "config": {"scale": 1.0, "mode": "fan_avg", "distribution": "uniform", "seed": null}}, "bias_initializer": {"class_name": "Zeros", "config": {}}, "kernel_regularizer": null, "bias_regularizer": null, "activity_regularizer": null, "kernel_constraint": null, "bias_constraint": null}}, {"class_name": "BatchNormalization", "config": {"name": "batch_normalization_256", "trainable": true, "dtype": "float32", "axis": [4], "momentum": 0.99, "epsilon": 0.001, "center": true, "scale": true, "beta_initializer": {"class_name": "Zeros", "config": {}}, "gamma_initializer": {"class_name": "Ones", "config": {}}, "moving_mean_initializer": {"class_name": "Zeros", "config": {}}, "moving_variance_initializer": {"class_name": "Ones", "config": {}}, "beta_regularizer": null, "gamma_regularizer": null, "beta_constraint": null, "gamma_constraint": null}}]}, "name": "sequential_179", "inbound_nodes": [[["re_lu_236", 0, 0, {}]]]}, {"class_name": "Add", "config": {"name": "add_94", "trainable": true, "dtype": "float32"}, "name": "add_94", "inbound_nodes": [[["batch_normalization_312", 0, 0, {}], ["sequential_216", 1, 0, {}]]]}, {"class_name": "Add", "config": {"name": "add_78", "trainable": true, "dtype": "float32"}, "name": "add_78", "inbound_nodes": [[["batch_normalization_259", 0, 0, {}], ["sequential_179", 1, 0, {}]]]}, {"class_name": "ReLU", "config": {"name": "re_lu_288", "trainable": true, "dtype": "float32", "max_value": null, "negative_slope": 0.0, "threshold": 0.0}, "name": "re_lu_288", "inbound_nodes": [[["add_94", 0, 0, {}]]]}, {"class_name": "ReLU", "config": {"name": "re_lu_239", "trainable": true, "dtype": "float32", "max_value": null, "negative_slope": 0.0, "threshold": 0.0}, "name": "re_lu_239", "inbound_nodes": [[["add_78", 0, 0, {}]]]}, {"class_name": "Sequential", "config": {"name": "sequential_219", "layers": [{"class_name": "InputLayer", "config": {"batch_input_shape": [null, 2, 7, 7, 2048], "dtype": "float32", "sparse": false, "ragged": false, "name": "conv3d_325_input"}}, {"class_name": "Conv3D", "config": {"name": "conv3d_325", "trainable": true, "dtype": "float32", "filters": 512, "kernel_size": [1, 1, 1], "strides": [1, 1, 1], "padding": "same", "data_format": "channels_last", "dilation_rate": [1, 1, 1], "groups": 1, "activation": "linear", "use_bias": false, "kernel_initializer": {"class_name": "VarianceScaling", "config": {"scale": 1.0, "mode": "fan_avg", "distribution": "uniform", "seed": null}}, "bias_initializer": {"class_name": "Zeros", "config": {}}, "kernel_regularizer": null, "bias_regularizer": null, "activity_regularizer": null, "kernel_constraint": null, "bias_constraint": null}}, {"class_name": "BatchNormalization", "config": {"name": "batch_normalization_313", "trainable": true, "dtype": "float32", "axis": [4], "momentum": 0.99, "epsilon": 0.001, "center": true, "scale": true, "beta_initializer": {"class_name": "Zeros", "config": {}}, "gamma_initializer": {"class_name": "Ones", "config": {}}, "moving_mean_initializer": {"class_name": "Zeros", "config": {}}, "moving_variance_initializer": {"class_name": "Ones", "config": {}}, "beta_regularizer": null, "gamma_regularizer": null, "beta_constraint": null, "gamma_constraint": null}}, {"class_name": "ReLU", "config": {"name": "re_lu_289", "trainable": true, "dtype": "float32", "max_value": null, "negative_slope": 0.0, "threshold": 0.0}}]}, "name": "sequential_219", "inbound_nodes": [[["re_lu_288", 0, 0, {}]]]}, {"class_name": "Sequential", "config": {"name": "sequential_182", "layers": [{"class_name": "InputLayer", "config": {"batch_input_shape": [null, 13, 7, 7, 256], "dtype": "float32", "sparse": false, "ragged": false, "name": "conv3d_272_input"}}, {"class_name": "Conv3D", "config": {"name": "conv3d_272", "trainable": true, "dtype": "float32", "filters": 64, "kernel_size": [3, 1, 1], "strides": [1, 1, 1], "padding": "same", "data_format": "channels_last", "dilation_rate": [1, 1, 1], "groups": 1, "activation": "linear", "use_bias": false, "kernel_initializer": {"class_name": "VarianceScaling", "config": {"scale": 1.0, "mode": "fan_avg", "distribution": "uniform", "seed": null}}, "bias_initializer": {"class_name": "Zeros", "config": {}}, "kernel_regularizer": null, "bias_regularizer": null, "activity_regularizer": null, "kernel_constraint": null, "bias_constraint": null}}, {"class_name": "BatchNormalization", "config": {"name": "batch_normalization_260", "trainable": true, "dtype": "float32", "axis": [4], "momentum": 0.99, "epsilon": 0.001, "center": true, "scale": true, "beta_initializer": {"class_name": "Zeros", "config": {}}, "gamma_initializer": {"class_name": "Ones", "config": {}}, "moving_mean_initializer": {"class_name": "Zeros", "config": {}}, "moving_variance_initializer": {"class_name": "Ones", "config": {}}, "beta_regularizer": null, "gamma_regularizer": null, "beta_constraint": null, "gamma_constraint": null}}, {"class_name": "ReLU", "config": {"name": "re_lu_240", "trainable": true, "dtype": "float32", "max_value": null, "negative_slope": 0.0, "threshold": 0.0}}]}, "name": "sequential_182", "inbound_nodes": [[["re_lu_239", 0, 0, {}]]]}, {"class_name": "Sequential", "config": {"name": "sequential_220", "layers": [{"class_name": "InputLayer", "config": {"batch_input_shape": [null, 2, 7, 7, 512], "dtype": "float32", "sparse": false, "ragged": false, "name": "conv3d_326_input"}}, {"class_name": "Conv3D", "config": {"name": "conv3d_326", "trainable": true, "dtype": "float32", "filters": 512, "kernel_size": [1, 3, 3], "strides": [1, 1, 1], "padding": "same", "data_format": "channels_last", "dilation_rate": [1, 1, 1], "groups": 1, "activation": "linear", "use_bias": false, "kernel_initializer": {"class_name": "VarianceScaling", "config": {"scale": 1.0, "mode": "fan_avg", "distribution": "uniform", "seed": null}}, "bias_initializer": {"class_name": "Zeros", "config": {}}, "kernel_regularizer": null, "bias_regularizer": null, "activity_regularizer": null, "kernel_constraint": null, "bias_constraint": null}}, {"class_name": "BatchNormalization", "config": {"name": "batch_normalization_314", "trainable": true, "dtype": "float32", "axis": [4], "momentum": 0.99, "epsilon": 0.001, "center": true, "scale": true, "beta_initializer": {"class_name": "Zeros", "config": {}}, "gamma_initializer": {"class_name": "Ones", "config": {}}, "moving_mean_initializer": {"class_name": "Zeros", "config": {}}, "moving_variance_initializer": {"class_name": "Ones", "config": {}}, "beta_regularizer": null, "gamma_regularizer": null, "beta_constraint": null, "gamma_constraint": null}}, {"class_name": "ReLU", "config": {"name": "re_lu_290", "trainable": true, "dtype": "float32", "max_value": null, "negative_slope": 0.0, "threshold": 0.0}}]}, "name": "sequential_220", "inbound_nodes": [[["sequential_219", 1, 0, {}]]]}, {"class_name": "Sequential", "config": {"name": "sequential_183", "layers": [{"class_name": "InputLayer", "config": {"batch_input_shape": [null, 13, 7, 7, 64], "dtype": "float32", "sparse": false, "ragged": false, "name": "conv3d_273_input"}}, {"class_name": "Conv3D", "config": {"name": "conv3d_273", "trainable": true, "dtype": "float32", "filters": 64, "kernel_size": [1, 3, 3], "strides": [1, 1, 1], "padding": "same", "data_format": "channels_last", "dilation_rate": [1, 1, 1], "groups": 1, "activation": "linear", "use_bias": false, "kernel_initializer": {"class_name": "VarianceScaling", "config": {"scale": 1.0, "mode": "fan_avg", "distribution": "uniform", "seed": null}}, "bias_initializer": {"class_name": "Zeros", "config": {}}, "kernel_regularizer": null, "bias_regularizer": null, "activity_regularizer": null, "kernel_constraint": null, "bias_constraint": null}}, {"class_name": "BatchNormalization", "config": {"name": "batch_normalization_261", "trainable": true, "dtype": "float32", "axis": [4], "momentum": 0.99, "epsilon": 0.001, "center": true, "scale": true, "beta_initializer": {"class_name": "Zeros", "config": {}}, "gamma_initializer": {"class_name": "Ones", "config": {}}, "moving_mean_initializer": {"class_name": "Zeros", "config": {}}, "moving_variance_initializer": {"class_name": "Ones", "config": {}}, "beta_regularizer": null, "gamma_regularizer": null, "beta_constraint": null, "gamma_constraint": null}}, {"class_name": "ReLU", "config": {"name": "re_lu_241", "trainable": true, "dtype": "float32", "max_value": null, "negative_slope": 0.0, "threshold": 0.0}}]}, "name": "sequential_183", "inbound_nodes": [[["sequential_182", 1, 0, {}]]]}, {"class_name": "Conv3D", "config": {"name": "conv3d_327", "trainable": true, "dtype": "float32", "filters": 2048, "kernel_size": [1, 1, 1], "strides": [1, 1, 1], "padding": "valid", "data_format": "channels_last", "dilation_rate": [1, 1, 1], "groups": 1, "activation": "linear", "use_bias": false, "kernel_initializer": {"class_name": "VarianceScaling", "config": {"scale": 1.0, "mode": "fan_avg", "distribution": "uniform", "seed": null}}, "bias_initializer": {"class_name": "Zeros", "config": {}}, "kernel_regularizer": null, "bias_regularizer": null, "activity_regularizer": null, "kernel_constraint": null, "bias_constraint": null}, "name": "conv3d_327", "inbound_nodes": [[["sequential_220", 1, 0, {}]]]}, {"class_name": "Conv3D", "config": {"name": "conv3d_274", "trainable": true, "dtype": "float32", "filters": 256, "kernel_size": [1, 1, 1], "strides": [1, 1, 1], "padding": "valid", "data_format": "channels_last", "dilation_rate": [1, 1, 1], "groups": 1, "activation": "linear", "use_bias": false, "kernel_initializer": {"class_name": "VarianceScaling", "config": {"scale": 1.0, "mode": "fan_avg", "distribution": "uniform", "seed": null}}, "bias_initializer": {"class_name": "Zeros", "config": {}}, "kernel_regularizer": null, "bias_regularizer": null, "activity_regularizer": null, "kernel_constraint": null, "bias_constraint": null}, "name": "conv3d_274", "inbound_nodes": [[["sequential_183", 1, 0, {}]]]}, {"class_name": "BatchNormalization", "config": {"name": "batch_normalization_315", "trainable": true, "dtype": "float32", "axis": [4], "momentum": 0.99, "epsilon": 0.001, "center": true, "scale": true, "beta_initializer": {"class_name": "Zeros", "config": {}}, "gamma_initializer": {"class_name": "Ones", "config": {}}, "moving_mean_initializer": {"class_name": "Zeros", "config": {}}, "moving_variance_initializer": {"class_name": "Ones", "config": {}}, "beta_regularizer": null, "gamma_regularizer": null, "beta_constraint": null, "gamma_constraint": null}, "name": "batch_normalization_315", "inbound_nodes": [[["conv3d_327", 0, 0, {}]]]}, {"class_name": "BatchNormalization", "config": {"name": "batch_normalization_262", "trainable": true, "dtype": "float32", "axis": [4], "momentum": 0.99, "epsilon": 0.001, "center": true, "scale": true, "beta_initializer": {"class_name": "Zeros", "config": {}}, "gamma_initializer": {"class_name": "Ones", "config": {}}, "moving_mean_initializer": {"class_name": "Zeros", "config": {}}, "moving_variance_initializer": {"class_name": "Ones", "config": {}}, "beta_regularizer": null, "gamma_regularizer": null, "beta_constraint": null, "gamma_constraint": null}, "name": "batch_normalization_262", "inbound_nodes": [[["conv3d_274", 0, 0, {}]]]}, {"class_name": "Add", "config": {"name": "add_95", "trainable": true, "dtype": "float32"}, "name": "add_95", "inbound_nodes": [[["batch_normalization_315", 0, 0, {}], ["re_lu_288", 0, 0, {}]]]}, {"class_name": "Add", "config": {"name": "add_79", "trainable": true, "dtype": "float32"}, "name": "add_79", "inbound_nodes": [[["batch_normalization_262", 0, 0, {}], ["re_lu_239", 0, 0, {}]]]}, {"class_name": "ReLU", "config": {"name": "re_lu_291", "trainable": true, "dtype": "float32", "max_value": null, "negative_slope": 0.0, "threshold": 0.0}, "name": "re_lu_291", "inbound_nodes": [[["add_95", 0, 0, {}]]]}, {"class_name": "ReLU", "config": {"name": "re_lu_242", "trainable": true, "dtype": "float32", "max_value": null, "negative_slope": 0.0, "threshold": 0.0}, "name": "re_lu_242", "inbound_nodes": [[["add_79", 0, 0, {}]]]}, {"class_name": "Sequential", "config": {"name": "sequential_221", "layers": [{"class_name": "InputLayer", "config": {"batch_input_shape": [null, 2, 7, 7, 2048], "dtype": "float32", "sparse": false, "ragged": false, "name": "conv3d_328_input"}}, {"class_name": "Conv3D", "config": {"name": "conv3d_328", "trainable": true, "dtype": "float32", "filters": 512, "kernel_size": [1, 1, 1], "strides": [1, 1, 1], "padding": "same", "data_format": "channels_last", "dilation_rate": [1, 1, 1], "groups": 1, "activation": "linear", "use_bias": false, "kernel_initializer": {"class_name": "VarianceScaling", "config": {"scale": 1.0, "mode": "fan_avg", "distribution": "uniform", "seed": null}}, "bias_initializer": {"class_name": "Zeros", "config": {}}, "kernel_regularizer": null, "bias_regularizer": null, "activity_regularizer": null, "kernel_constraint": null, "bias_constraint": null}}, {"class_name": "BatchNormalization", "config": {"name": "batch_normalization_316", "trainable": true, "dtype": "float32", "axis": [4], "momentum": 0.99, "epsilon": 0.001, "center": true, "scale": true, "beta_initializer": {"class_name": "Zeros", "config": {}}, "gamma_initializer": {"class_name": "Ones", "config": {}}, "moving_mean_initializer": {"class_name": "Zeros", "config": {}}, "moving_variance_initializer": {"class_name": "Ones", "config": {}}, "beta_regularizer": null, "gamma_regularizer": null, "beta_constraint": null, "gamma_constraint": null}}, {"class_name": "ReLU", "config": {"name": "re_lu_292", "trainable": true, "dtype": "float32", "max_value": null, "negative_slope": 0.0, "threshold": 0.0}}]}, "name": "sequential_221", "inbound_nodes": [[["re_lu_291", 0, 0, {}]]]}, {"class_name": "Sequential", "config": {"name": "sequential_184", "layers": [{"class_name": "InputLayer", "config": {"batch_input_shape": [null, 13, 7, 7, 256], "dtype": "float32", "sparse": false, "ragged": false, "name": "conv3d_275_input"}}, {"class_name": "Conv3D", "config": {"name": "conv3d_275", "trainable": true, "dtype": "float32", "filters": 64, "kernel_size": [3, 1, 1], "strides": [1, 1, 1], "padding": "same", "data_format": "channels_last", "dilation_rate": [1, 1, 1], "groups": 1, "activation": "linear", "use_bias": false, "kernel_initializer": {"class_name": "VarianceScaling", "config": {"scale": 1.0, "mode": "fan_avg", "distribution": "uniform", "seed": null}}, "bias_initializer": {"class_name": "Zeros", "config": {}}, "kernel_regularizer": null, "bias_regularizer": null, "activity_regularizer": null, "kernel_constraint": null, "bias_constraint": null}}, {"class_name": "BatchNormalization", "config": {"name": "batch_normalization_263", "trainable": true, "dtype": "float32", "axis": [4], "momentum": 0.99, "epsilon": 0.001, "center": true, "scale": true, "beta_initializer": {"class_name": "Zeros", "config": {}}, "gamma_initializer": {"class_name": "Ones", "config": {}}, "moving_mean_initializer": {"class_name": "Zeros", "config": {}}, "moving_variance_initializer": {"class_name": "Ones", "config": {}}, "beta_regularizer": null, "gamma_regularizer": null, "beta_constraint": null, "gamma_constraint": null}}, {"class_name": "ReLU", "config": {"name": "re_lu_243", "trainable": true, "dtype": "float32", "max_value": null, "negative_slope": 0.0, "threshold": 0.0}}]}, "name": "sequential_184", "inbound_nodes": [[["re_lu_242", 0, 0, {}]]]}, {"class_name": "Sequential", "config": {"name": "sequential_222", "layers": [{"class_name": "InputLayer", "config": {"batch_input_shape": [null, 2, 7, 7, 512], "dtype": "float32", "sparse": false, "ragged": false, "name": "conv3d_329_input"}}, {"class_name": "Conv3D", "config": {"name": "conv3d_329", "trainable": true, "dtype": "float32", "filters": 512, "kernel_size": [1, 3, 3], "strides": [1, 1, 1], "padding": "same", "data_format": "channels_last", "dilation_rate": [1, 1, 1], "groups": 1, "activation": "linear", "use_bias": false, "kernel_initializer": {"class_name": "VarianceScaling", "config": {"scale": 1.0, "mode": "fan_avg", "distribution": "uniform", "seed": null}}, "bias_initializer": {"class_name": "Zeros", "config": {}}, "kernel_regularizer": null, "bias_regularizer": null, "activity_regularizer": null, "kernel_constraint": null, "bias_constraint": null}}, {"class_name": "BatchNormalization", "config": {"name": "batch_normalization_317", "trainable": true, "dtype": "float32", "axis": [4], "momentum": 0.99, "epsilon": 0.001, "center": true, "scale": true, "beta_initializer": {"class_name": "Zeros", "config": {}}, "gamma_initializer": {"class_name": "Ones", "config": {}}, "moving_mean_initializer": {"class_name": "Zeros", "config": {}}, "moving_variance_initializer": {"class_name": "Ones", "config": {}}, "beta_regularizer": null, "gamma_regularizer": null, "beta_constraint": null, "gamma_constraint": null}}, {"class_name": "ReLU", "config": {"name": "re_lu_293", "trainable": true, "dtype": "float32", "max_value": null, "negative_slope": 0.0, "threshold": 0.0}}]}, "name": "sequential_222", "inbound_nodes": [[["sequential_221", 1, 0, {}]]]}, {"class_name": "Sequential", "config": {"name": "sequential_185", "layers": [{"class_name": "InputLayer", "config": {"batch_input_shape": [null, 13, 7, 7, 64], "dtype": "float32", "sparse": false, "ragged": false, "name": "conv3d_276_input"}}, {"class_name": "Conv3D", "config": {"name": "conv3d_276", "trainable": true, "dtype": "float32", "filters": 64, "kernel_size": [1, 3, 3], "strides": [1, 1, 1], "padding": "same", "data_format": "channels_last", "dilation_rate": [1, 1, 1], "groups": 1, "activation": "linear", "use_bias": false, "kernel_initializer": {"class_name": "VarianceScaling", "config": {"scale": 1.0, "mode": "fan_avg", "distribution": "uniform", "seed": null}}, "bias_initializer": {"class_name": "Zeros", "config": {}}, "kernel_regularizer": null, "bias_regularizer": null, "activity_regularizer": null, "kernel_constraint": null, "bias_constraint": null}}, {"class_name": "BatchNormalization", "config": {"name": "batch_normalization_264", "trainable": true, "dtype": "float32", "axis": [4], "momentum": 0.99, "epsilon": 0.001, "center": true, "scale": true, "beta_initializer": {"class_name": "Zeros", "config": {}}, "gamma_initializer": {"class_name": "Ones", "config": {}}, "moving_mean_initializer": {"class_name": "Zeros", "config": {}}, "moving_variance_initializer": {"class_name": "Ones", "config": {}}, "beta_regularizer": null, "gamma_regularizer": null, "beta_constraint": null, "gamma_constraint": null}}, {"class_name": "ReLU", "config": {"name": "re_lu_244", "trainable": true, "dtype": "float32", "max_value": null, "negative_slope": 0.0, "threshold": 0.0}}]}, "name": "sequential_185", "inbound_nodes": [[["sequential_184", 1, 0, {}]]]}, {"class_name": "Conv3D", "config": {"name": "conv3d_330", "trainable": true, "dtype": "float32", "filters": 2048, "kernel_size": [1, 1, 1], "strides": [1, 1, 1], "padding": "valid", "data_format": "channels_last", "dilation_rate": [1, 1, 1], "groups": 1, "activation": "linear", "use_bias": false, "kernel_initializer": {"class_name": "VarianceScaling", "config": {"scale": 1.0, "mode": "fan_avg", "distribution": "uniform", "seed": null}}, "bias_initializer": {"class_name": "Zeros", "config": {}}, "kernel_regularizer": null, "bias_regularizer": null, "activity_regularizer": null, "kernel_constraint": null, "bias_constraint": null}, "name": "conv3d_330", "inbound_nodes": [[["sequential_222", 1, 0, {}]]]}, {"class_name": "Conv3D", "config": {"name": "conv3d_277", "trainable": true, "dtype": "float32", "filters": 256, "kernel_size": [1, 1, 1], "strides": [1, 1, 1], "padding": "valid", "data_format": "channels_last", "dilation_rate": [1, 1, 1], "groups": 1, "activation": "linear", "use_bias": false, "kernel_initializer": {"class_name": "VarianceScaling", "config": {"scale": 1.0, "mode": "fan_avg", "distribution": "uniform", "seed": null}}, "bias_initializer": {"class_name": "Zeros", "config": {}}, "kernel_regularizer": null, "bias_regularizer": null, "activity_regularizer": null, "kernel_constraint": null, "bias_constraint": null}, "name": "conv3d_277", "inbound_nodes": [[["sequential_185", 1, 0, {}]]]}, {"class_name": "BatchNormalization", "config": {"name": "batch_normalization_318", "trainable": true, "dtype": "float32", "axis": [4], "momentum": 0.99, "epsilon": 0.001, "center": true, "scale": true, "beta_initializer": {"class_name": "Zeros", "config": {}}, "gamma_initializer": {"class_name": "Ones", "config": {}}, "moving_mean_initializer": {"class_name": "Zeros", "config": {}}, "moving_variance_initializer": {"class_name": "Ones", "config": {}}, "beta_regularizer": null, "gamma_regularizer": null, "beta_constraint": null, "gamma_constraint": null}, "name": "batch_normalization_318", "inbound_nodes": [[["conv3d_330", 0, 0, {}]]]}, {"class_name": "BatchNormalization", "config": {"name": "batch_normalization_265", "trainable": true, "dtype": "float32", "axis": [4], "momentum": 0.99, "epsilon": 0.001, "center": true, "scale": true, "beta_initializer": {"class_name": "Zeros", "config": {}}, "gamma_initializer": {"class_name": "Ones", "config": {}}, "moving_mean_initializer": {"class_name": "Zeros", "config": {}}, "moving_variance_initializer": {"class_name": "Ones", "config": {}}, "beta_regularizer": null, "gamma_regularizer": null, "beta_constraint": null, "gamma_constraint": null}, "name": "batch_normalization_265", "inbound_nodes": [[["conv3d_277", 0, 0, {}]]]}, {"class_name": "Add", "config": {"name": "add_96", "trainable": true, "dtype": "float32"}, "name": "add_96", "inbound_nodes": [[["batch_normalization_318", 0, 0, {}], ["re_lu_291", 0, 0, {}]]]}, {"class_name": "Add", "config": {"name": "add_80", "trainable": true, "dtype": "float32"}, "name": "add_80", "inbound_nodes": [[["batch_normalization_265", 0, 0, {}], ["re_lu_242", 0, 0, {}]]]}, {"class_name": "ReLU", "config": {"name": "re_lu_294", "trainable": true, "dtype": "float32", "max_value": null, "negative_slope": 0.0, "threshold": 0.0}, "name": "re_lu_294", "inbound_nodes": [[["add_96", 0, 0, {}]]]}, {"class_name": "ReLU", "config": {"name": "re_lu_245", "trainable": true, "dtype": "float32", "max_value": null, "negative_slope": 0.0, "threshold": 0.0}, "name": "re_lu_245", "inbound_nodes": [[["add_80", 0, 0, {}]]]}, {"class_name": "GlobalAveragePooling3D", "config": {"name": "global_average_pooling3d_6", "trainable": true, "dtype": "float32", "data_format": "channels_last", "keepdims": false}, "name": "global_average_pooling3d_6", "inbound_nodes": [[["re_lu_294", 0, 0, {}]]]}, {"class_name": "GlobalAveragePooling3D", "config": {"name": "global_average_pooling3d_5", "trainable": true, "dtype": "float32", "data_format": "channels_last", "keepdims": false}, "name": "global_average_pooling3d_5", "inbound_nodes": [[["re_lu_245", 0, 0, {}]]]}, {"class_name": "Concatenate", "config": {"name": "concatenate_15", "trainable": true, "dtype": "float32", "axis": -1}, "name": "concatenate_15", "inbound_nodes": [[["global_average_pooling3d_6", 0, 0, {}], ["global_average_pooling3d_5", 0, 0, {}]]]}, {"class_name": "Dropout", "config": {"name": "dropout_3", "trainable": true, "dtype": "float32", "rate": 0.5, "noise_shape": null, "seed": null}, "name": "dropout_3", "inbound_nodes": [[["concatenate_15", 0, 0, {}]]]}, {"class_name": "Dense", "config": {"name": "dense_3", "trainable": true, "dtype": "float32", "units": 14, "activation": "softmax", "use_bias": true, "kernel_initializer": {"class_name": "VarianceScaling", "config": {"scale": 1.0, "mode": "fan_avg", "distribution": "uniform", "seed": null}}, "bias_initializer": {"class_name": "Zeros", "config": {}}, "kernel_regularizer": null, "bias_regularizer": null, "activity_regularizer": null, "kernel_constraint": null, "bias_constraint": null}, "name": "dense_3", "inbound_nodes": [[["dropout_3", 0, 0, {}]]]}], "input_layers": [["input_3", 0, 0]], "output_layers": [["dense_3", 0, 0]]}, "keras_version": "2.6.0", "backend": "tensorflow"}